lab_10/models/best_lstm_model_30000.pth (torch_old, 130758 bytes, 9 tensors)

lstm1.weight_ih f4 [204, 1]
0	0x3da19597	0.0788986
1	0x3ec9c596	0.3940856
2	0xbe4716f3	-0.19442348
3	0x3cfc511a	0.030800391
4	0xbec05fda	-0.3757313
5	0x3e644349	0.22291292
6	0xbf11c3a8	-0.5693917
7	0xbee70db3	-0.4512764
8	0x3df1989e	0.117966875
9	0x3f212da6	0.6296028
10	0xbee1432b	-0.43996558
11	0xbdde5179	-0.108553834
12	0x3e7917f4	0.24325544
13	0xbdfb1317	-0.122595005
14	0x3eb6bed4	0.35692465
15	0xbf1486f7	-0.5801844
16	0xbe61383c	-0.21994108
17	0xbedf90d8	-0.43665195
18	0x3f12988a	0.57264006
19	0x3d8a5461	0.06754375
20	0xbf80a7f7	-1.0051259
21	0xbec82db0	-0.39097357
22	0xbe1b3ddc	-0.15160316
23	0xbebbe4e2	-0.3669806
24	0x3f437f2f	0.7636594
25	0xbf266b7a	-0.65007746
26	0xbf03ab48	-0.5143323
27	0x3f19d62a	0.60092413
28	0x3d5d5ca8	0.054043442
29	0xbf15c26a	-0.5849978
30	0x3ecd8b43	0.4014531
31	0x3e9d637f	0.30739972
32	0x3e52c347	0.20582305
33	0xbed402be	-0.41408342
34	0xbf19058f	-0.59774107
35	0x3f2c63f1	0.6734
36	0xbec85b82	-0.39132315
37	0xbf5a1e49	-0.8520246
38	0x3e9495f8	0.29020667
39	0xbf8c4943	-1.0959858
40	0xbf822a21	-1.0169107
41	0xbdbec1a2	-0.09314276
42	0x3eb920a7	0.36157724
43	0xbdd769b0	-0.10518205
44	0xbe23aeb1	-0.15984608
45	0xbe6bd301	-0.2302971
46	0x3ed1e22c	0.40992868
47	0x3e8e2e02	0.27769476
48	0xbd262f02	-0.040572174
49	0x3ec76dda	0.38950998
50	0xbe1548c1	-0.14578535
51	0x3e7002e8	0.23438609
52	0x3e4715c1	0.19441892
53	0xbeef87ec	-0.46783388
54	0xbc8db2be	-0.017297145
55	0x3e921fda	0.28539926
56	0xbf495844	-0.7865031
57	0xbf64f970	-0.8944311
58	0x3f2afd13	0.6679241
59	0x3ea2f11c	0.31824577
60	0x3e09fda9	0.1347567
61	0xbde081db	-0.10962268
62	0xbeeee31b	-0.46657643
63	0xbf297996	-0.6620115
64	0x3e791dd9	0.24327792
65	0x3d941014	0.07229629
66	0xbf4aeee4	-0.7927077
67	0xbec37635	-0.38176122
68	0xbf8fdc8b	-1.1239179
69	0xbecfa0ab	-0.40552267
70	0xbf367138	-0.7126651
71	0x3f03b4b2	0.51447594
72	0x3dd0af54	0.10189691
73	0xbe4ae412	-0.19813564
74	0xbf09e547	-0.53865474
75	0xbf14bce4	-0.58100724
76	0xbf3017be	-0.6878623
77	0xbe89918a	-0.2686885
78	0xbecae353	-0.3962656
79	0xbe646e83	-0.22307782
80	0x3de3d3d8	0.1112439
81	0x3e01e12e	0.12683555
82	0x3d1d9803	0.038475048
83	0xbf4bba00	-0.7958069
84	0xbf06212a	-0.52394354
85	0xbebc2e75	-0.36754194
86	0xbf14dfc2	-0.5815393
87	0xbf137594	-0.57601285
88	0x3ec97364	0.3934585
89	0xbebc04bd	-0.36722365
90	0x3efff62a	0.49992496
91	0x3f23426e	0.6377324
92	0xbe98f04d	-0.29870835
93	0x3eab2390	0.3342557
94	0xbeeac279	-0.45851496
95	0x3e0b5cc1	0.13609602
96	0x3f244845	0.64172775
97	0xbf0d5f2a	-0.55223334
98	0xbe828471	-0.2549167
99	0x3f4a4f12	0.790269
100	0x3f06f927	0.52723926
101	0xbeb802dc	-0.35939682
102	0xbf026344	-0.5093272
103	0x3f8a879b	1.0822634
104	0x3f586107	0.8452305
105	0xbef8e0a8	-0.486089
106	0x3f9e9a46	1.239083
107	0xbc89bdbe	-0.016814109
108	0xbe0c972a	-0.1372954
109	0x3f71dd7d	0.9447859
110	0xbbba07e1	-0.005677209
111	0xbe604f89	-0.2190534
112	0xbf471782	-0.77770245
113	0x3e9b65a0	0.3035097
114	0xbf84975f	-1.0358695
115	0x3c1648f4	0.009172667
116	0xbeccb7a7	-0.39983866
117	0xbee05949	-0.4381812
118	0xbf0931eb	-0.53591794
119	0x3f709a67	0.939856
120	0xbd2e3dcc	-0.042539403
121	0xbd6ae1d7	-0.057344284
122	0x3f1fccf2	0.62422097
123	0x3f505474	0.81378865
124	0xbe88cad7	-0.26717255
125	0x3f8e1fe6	1.1103485
126	0xbdadf76a	-0.08494456
127	0xbe6da180	-0.23206139
128	0xbf79eb32	-0.97624505
129	0xbf08a943	-0.5338327
130	0xbf43985f	-0.76404375
131	0x3e9c112c	0.3048185
132	0xbe281819	-0.16415443
133	0xbf140b58	-0.5782981
134	0x3cf7b84d	0.030239249
135	0x3ecc6bf8	0.39926124
136	0x3e9e6346	0.30935115
137	0xbdd27b47	-0.102774195
138	0x3f8b2f81	1.0873872
139	0xbf5942d5	-0.848676
140	0xbe975896	-0.29559773
141	0xbf4c5c61	-0.7982846
142	0xbe840cfc	-0.25791156
143	0xbe117017	-0.14202915
144	0xbf50e89d	-0.8160494
145	0x3e5116a8	0.20418799
146	0xbf815250	-1.0103245
147	0xbf390d69	-0.7228609
148	0xbf07aa28	-0.5299401
149	0xbdd5ea62	-0.104450956
150	0xbf8f6262	-1.1201899
151	0xbf55516a	-0.83327353
152	0x3e4c8996	0.1997436
153	0x3f105073	0.56372756
154	0xbd525d14	-0.051358297
155	0xbecae07a	-0.39624387
156	0x3e8a7921	0.2704554
157	0xbe93704e	-0.2879662
158	0xbe6f6e69	-0.23381962
159	0xbf386175	-0.7202371
160	0xbf228725	-0.63487464
161	0x3f3015ba	0.6878315
162	0x3e569f06	0.209591
163	0xbf3f58e5	-0.7474502
164	0xbebd2b63	-0.36947164
165	0xbe835356	-0.25649518
166	0xbdcbd5ba	-0.099528745
167	0x3f32a579	0.6978374
168	0xbf113b4b	-0.567311
169	0x3e030e5f	0.12798451
170	0xbf410fe9	-0.754149
171	0xbcbedc5c	-0.023298435
172	0xbeb8b346	-0.36074275
173	0xbf5dc3b6	-0.86626756
174	0xbe60b73d	-0.219449
175	0xbefeab24	-0.49739945
176	0x3e3cfec2	0.18456557
177	0xbeac9f23	-0.33715162
178	0xbf46095d	-0.7735804
179	0xbf1f9bbb	-0.62347
180	0x3e2bd14c	0.16779059
181	0xbe99370b	-0.29924807
182	0x3d1a003c	0.03759788
183	0x3e151f5e	0.14562747
184	0xbd84a99a	-0.064776614
185	0xbf2303b5	-0.6367753
186	0xbed625fc	-0.41825855
187	0xbf5d8ba8	-0.86541224
188	0xbecd55e3	-0.4010459
189	0x3c3e04fb	0.011597867
190	0x3eeab0e2	0.45838076
191	0xbf196fb6	-0.5993608
192	0xbf779a1c	-0.9671953
193	0xbf8347f8	-1.0256338
194	0x3d1bc438	0.038028926
195	0xbcd8a2bf	-0.02644479
196	0xbeca1220	-0.39466953
197	0x3df99804	0.12187198
198	0x3ef9f19d	0.4881715
199	0xbd3b1cb9	-0.04568169
200	0xbe9f6fcc	-0.31139982
201	0x3dba2402	0.09088899
202	0x3ececd18	0.4039085
203	0xbe5d23c4	-0.21595675

lstm1.weight_hh f4 [204, 51]
0	0xbef7b395	-0.48379198
1	0x3fbc0a7b	1.4690698
2	0xbf121e88	-0.57077837
3	0x3f6b7da9	0.9198862
4	0x3f1230f8	0.5710597
5	0x3faf93e8	1.3717012
6	0x3f49672a	0.7867304
7	0xbf32dcf0	-0.69868374
8	0xbea3b007	-0.31970236
9	0xbe0b4257	-0.13599525
10	0xbf173fe2	-0.5908185
11	0xbf2816ee	-0.6565999
12	0xbfba51c9	-1.4556209
13	0xbed05102	-0.40686804
14	0xbf46ab2e	-0.7760495
15	0x3f337dc2	0.70113766
16	0xbf4465fe	-0.7671813
17	0xbf2ceb9f	-0.6754703
18	0x3fb1a56d	1.3878609
19	0xbecd0b31	-0.400476
20	0x3f12780c	0.57214427
21	0xbdfa166b	-0.12211307
22	0xbee5b844	-0.44867146
23	0x3fb4698a	1.4094708
24	0xbeb2b93b	-0.34906945
25	0x3f132948	0.57484865
26	0x3f8938ed	1.0720497
27	0xbfc03e24	-1.5018964
28	0x3eeb300a	0.45935088
29	0xbd946aa9	-0.07246906
30	0xbe99674e	-0.29961628
31	0xbefe9d4c	-0.49729383
32	0xbf27ea17	-0.6559157
33	0xbde85741	-0.11344767
34	0x3f82efe0	1.0229454
35	0xbf4bf2e2	-0.79667485
36	0xbfbfca2d	-1.4983574
37	0x3d1d204c	0.03836088
38	0xbf1770cd	-0.59156495
39	0x3f170202	0.5898744
40	0x3f3d3cfc	0.7392118
41	0xbeb0090c	-0.34381902
42	0xbefdb9cc	-0.49555814
43	0xbf2fd946	-0.6869091
44	0x3ec32f3d	0.38121977
45	0x3ef9301a	0.4866951
46	0xbfa5f648	-1.2965784
47	0x3f1e3c18	0.61810446
48	0x3f51f604	0.82016015
49	0x3f4b4372	0.7939979
50	0x3eee89b6	0.4658944
51	0x3f38c4a0	0.72175026
52	0x3fb9483d	1.447517
53	0xbc6acb49	-0.0143306935
54	0x3f9e0dfe	1.234802
55	0x3fb6cccd	1.428125
56	0x3fb81408	1.4381113
57	0x3fa5335a	1.2906296
58	0xbf5403ed	-0.8281849
59	0x3f898034	1.074225
60	0x3f367724	0.71275544
61	0x3f3ec6c4	0.7452204
62	0xbe47ed43	-0.19524102
63	0xbfb72645	-1.4308554
64	0xbfab7da1	-1.3397714
65	0xbf32ef6d	-0.69896585
66	0x3f2dc2e0	0.6787548
67	0xbfa17ce9	-1.2616245
68	0xbf2191a1	-0.6311284
69	0x3fbfb131	1.497595
70	0xbf9e6697	-1.2375058
71	0x3f421d7d	0.75826246
72	0xbf2fea93	-0.68717307
73	0x3dcb1af5	0.09917251
74	0xbf4b5f86	-0.7944263
75	0xbf9ed652	-1.2409155
76	0x3fab8bcb	1.3402036
77	0x3f9c9ac2	1.2234728
78	0xbfad134b	-1.3521513
79	0xbf2999bc	-0.66250205
80	0x3f01cc12	0.5070201
81	0x3f020dd6	0.5080236
82	0x3f3ab2f2	0.729293
83	0xbfa92968	-1.3215761
84	0x3f91573a	1.1354744
85	0x3f8b91dd	1.0903889
86	0xbfb99f49	-1.4501735
87	0xbfb483c8	-1.4102716
88	0xbf8d1d09	-1.1024486
89	0xbf8e5e68	-1.112256
90	0x3f37ed0a	0.7184607
91	0x3f7137b8	0.94225645
92	0xbee6be0d	-0.45066872
93	0xbfab00b6	-1.3359592
94	0xbf2759ad	-0.6537121
95	0x3f9f5517	1.2447842
96	0x3f371b5e	0.71526134
97	0xbfad2e87	-1.3529824
98	0x3fbfd24c	1.4986053
99	0x3efd49f2	0.49470478
100	0x3f8a4255	1.0801493
101	0xbf20f28e	-0.6287011
102	0xbfa3b4d8	-1.2789564
103	0x3fa9008d	1.3203293
104	0xbfa70f27	-1.3051499
105	0xbe0c0fb2	-0.13677862
106	0x3fa6f59c	1.3043704
107	0x3facb910	1.3493977
108	0x3fbef466	1.4918334
109	0x3fa9f52b	1.3277944
110	0xbf88fea8	-1.0702715
111	0xbf9e828b	-1.2383589
112	0xbf6c99a4	-0.92421937
113	0xbfa53943	-1.29081
114	0xbfadc96b	-1.3577093
115	0xbfa710af	-1.3051966
116	0xbfa8590f	-1.3152179
117	0xbf9c7922	-1.2224467
118	0xbfa4797d	-1.2849575
119	0x3fa3c8fb	1.2795709
120	0x3fb7ab8f	1.434923
121	0xbfaf7f77	-1.3710774
122	0xbf5f1a70	-0.87149715
123	0x3fa5ce97	1.2953671
124	0x3fa7dc99	1.3114196
125	0x3fb6f20e	1.4292619
126	0xbfaaae87	-1.3334512
127	0x3fb0e816	1.3820827
128	0xbfa5e4af	-1.2960414
129	0xbfacf664	-1.3512692
130	0x3faea6e3	1.364468
131	0x3f9dda5c	1.2332263
132	0xbf1bc528	-0.6084771
133	0xbf98e11f	-1.1943702
134	0xbfba9c48	-1.4578943
135	0xbfa58e1e	-1.2933996
136	0xbf9a77f7	-1.206786
137	0xbfab80e0	-1.3398705
138	0xbfa6950c	-1.3014235
139	0x3f8001dc	1.0000567
140	0xbf96291b	-1.1731294
141	0xbfa7bf5b	-1.3105272
142	0x3f9ce1f0	1.2256451
143	0xbfb66bea	-1.4251683
144	0xbfb897a9	-1.4421283
145	0x3fac29aa	1.3450215
146	0xbe820123	-0.25391492
147	0xbf7e70bb	-0.99390763
148	0xbfaa7ce2	-1.3319361
149	0x3fa68821	1.3010293
150	0xbf1071a0	-0.5642338
151	0xbf48d507	-0.78450054
152	0x3fa8e4b9	1.3194801
153	0xbf1521d3	-0.58254737
154	0xbf524377	-0.82134193
155	0x3eacbf5f	0.33739755
156	0x3f9dc1bc	1.2324748
157	0xbf42cad6	-0.76090753
158	0xbec59903	-0.385933
159	0xbf3d73c3	-0.74004763
160	0xbfa6df72	-1.303694
161	0xbf214036	-0.62988603
162	0x3fa18848	1.2619715
163	0x3f8b7c9f	1.0897406
164	0x3fade0bb	1.3584207
165	0x3f30c497	0.6904997
166	0x3fb05693	1.377642
167	0xbf0a61c5	-0.54055434
168	0x3facd06f	1.3501109
169	0x3f24f5f7	0.6443781
170	0xbf623717	-0.8836531
171	0x3f9c2087	1.2197427
172	0x3f9a347c	1.2047267
173	0x3f4dc865	0.803839
174	0xbf4e5386	-0.80596197
175	0xbf927ec9	-1.1444942
176	0xbfaf3732	-1.3688719
177	0x3f878d62	1.0590022
178	0xbf69907f	-0.9123611
179	0x3fa01e5b	1.2509264
180	0xbf8a1ae5	-1.0789458
181	0xbf1d2e22	-0.6139852
182	0xbfa0251d	-1.2511326
183	0x3f179a47	0.59219784
184	0x3faca672	1.3488295
185	0x3f421af0	0.75822353
186	0x3fae4f57	1.3617963
187	0x3fb531a0	1.4155769
188	0x3e002cf9	0.12517156
189	0xbf87ac4d	-1.0599457
190	0xbfab1a7d	-1.3367459
191	0x3f017c41	0.5058022
192	0x3f46825f	0.7754268
193	0x3f21e6eb	0.6324298
194	0x3f9224ec	1.1417518
195	0x3f8da514	1.1066003
196	0xbf9fe154	-1.249064
197	0x3f9474be	1.1598127
198	0x3f3b8b42	0.73259366
199	0x3f3f9137	0.74830955
200	0xbc267718	-0.01016023
201	0x3f886443	1.0655597
202	0x3f9dc86d	1.232679
203	0xbfa3263d	-1.2746044
204	0x3f38d533	0.72200316
205	0x3ee57a7e	0.44820017
206	0x3f9e8fc0	1.2387619
207	0x3f96f253	1.1792701
208	0x3fabc50b	1.3419508
209	0xbf3ffce9	-0.74995285
210	0xbf7a26ed	-0.97715646
211	0xbf4c9a28	-0.79922724
212	0x3f804388	1.0020609
213	0x3f29a5a7	0.6626839
214	0x3f77a41a	0.96734774
215	0x3fa2d291	1.272051
216	0xbfae11bf	-1.3599166
217	0x3fab42aa	1.3379719
218	0x3f42ba0e	0.76065147
219	0x3fa52171	1.290083
220	0x3f64fc2e	0.89447296
221	0xbf3101ea	-0.69143546
222	0xbf44b6c5	-0.76841384
223	0x3fae4fef	1.3618144
224	0x3f2f2c82	0.6842729
225	0xbf4241d9	-0.75881726
226	0xbf966dcf	-1.1752261
227	0xbfb5454b	-1.4161772
228	0x3f9fb5fa	1.247741
229	0xbf647032	-0.89233696
230	0x3fa25a0a	1.2683728
231	0x3f33cb64	0.70232224
232	0xbf960d91	-1.172289
233	0xbfaaec46	-1.3353355
234	0x3fa8081c	1.3127475
235	0x3f3ee8f8	0.7457423
236	0x3f430618	0.76181173
237	0x3f9a4c33	1.2054504
238	0x3f9f4050	1.2441502
239	0x3ee0dc94	0.43918288
240	0x3f456e38	0.77121305
241	0xbf9d01e0	-1.2266197
242	0x3f3b5632	0.731784
243	0xbfb0ab88	-1.3802347
244	0xbf9f5607	-1.2448128
245	0x3fa59631	1.293646
246	0x3f1f5c68	0.62250376
247	0xbfa71693	-1.3053764
248	0x3f665b9a	0.8998352
249	0x3f5f091f	0.8712329
250	0x3f388479	0.7207714
251	0xbf8e3c48	-1.1112146
252	0xbe071662	-0.13192132
253	0x3f4cb73a	0.7996708
254	0xbfaa19ee	-1.3289163
255	0xbfa9265e	-1.3214834

lstm1.bias_ih f4 [204]
0	0xbfb1d7cf	-1.3893985
1	0xbfabddac	-1.3427024
2	0xbfa3ad5b	-1.2787279
3	0xbf32eeac	-0.69895434
4	0xbfa224fd	-1.2667538
5	0xbfab4c16	-1.3382595
6	0xbfb2c702	-1.3966982
7	0xbfbdfa4d	-1.4842011
8	0xbfbfc6d5	-1.4982554
9	0xbfb72f44	-1.4311299
10	0xbfbb9a2c	-1.4656425
11	0xbf9f4bf1	-1.244505
12	0xbfab9a84	-1.340653
13	0xbf93692e	-1.1516473
14	0xbfa90fb0	-1.3207912
15	0xbfbb8672	-1.4650404
16	0xbfbaf480	-1.4605865
17	0xbf845cdc	-1.0340838
18	0xbf9bb255	-1.2163798
19	0xbf8dbc2c	-1.107305
20	0xbfb873a5	-1.4410292
21	0xbfa6966a	-1.3014653
22	0xbfb90b7f	-1.4456633
23	0xbfadc9ed	-1.3577248
24	0xbfae0552	-1.3595374
25	0xbf8d713b	-1.105018
26	0xbfaf6355	-1.3702189
27	0xbfbebb8f	-1.4900988
28	0xbf9e8d11	-1.23868
29	0xbf9c8145	-1.222695
30	0x3df594ef	0.119912975
31	0xbfadcb1f	-1.3577613
32	0xbfa51af1	-1.2898847
33	0xbf9d42bc	-1.2285991
34	0xbfacc469	-1.349744
35	0xbf024429	-0.50885254
36	0xbf53488b	-0.82532567
37	0xbfb6f673	-1.429396
38	0xbe97ae5a	-0.29625207
39	0xbfa5d097	-1.2954282
40	0xbfad5908	-1.3542795
41	0xbf9df392	-1.2339957
42	0xbf9c791b	-1.2224458
43	0xbfb2d7ee	-1.3972147
44	0xbf811d4e	-1.0087068
45	0xbfab46f7	-1.3381032
46	0xbfa22465	-1.2667357
47	0xbf9a7e1a	-1.2069733
48	0xbe188f9f	-0.14898537
49	0xbf9d8a02	-1.2307742
50	0xbfb23d03	-1.3924869
51	0xbfb614a3	-1.4225048
52	0xbfbf773d	-1.4958264
53	0xbfb7f179	-1.4370567
54	0x3f69e2bc	0.91361594
55	0xbfb92f39	-1.4467536
56	0xbfb759ac	-1.4324241
57	0xbfbb45e0	-1.4630699
58	0xbfaa2fd6	-1.3295848
59	0xbfa17a11	-1.2615377
60	0xbf814d05	-1.010163
61	0xbfa19946	-1.26249
62	0xbfbf4431	-1.4942685
63	0xbfa07641	-1.2536088
64	0xbfa0b5d5	-1.2555491
65	0xbfb469d7	-1.40948
66	0xbfa081fd	-1.2539669
67	0xbfa02abc	-1.2513041
68	0xbf7a4e51	-0.9777575
69	0xbfbe25de	-1.4855306
70	0xbf9c9ce3	-1.2235378
71	0xbf9e67b3	-1.2375396
72	0xbf5ab84a	-0.8543745
73	0xbfba0f7d	-1.4535977
74	0xbf653e3f	-0.89548105
75	0xbfb86868	-1.4406862
76	0xbfa8d2c3	-1.3189319
77	0xbfaf5500	-1.3697815
78	0xbfa87d4a	-1.3163235
79	0xbfa08acb	-1.2542356
80	0xbfb04386	-1.3770607
81	0xbf09d334	-0.53837895
82	0xbf57eb88	-0.8434377
83	0xbfa95f15	-1.3232142
84	0xbfb22426	-1.3917282
85	0xbfb80b08	-1.4378366
86	0xbfbad6da	-1.4596817
87	0xbfabdd10	-1.3426838
88	0xbfb1d6e6	-1.3893707
89	0xbfad0cf1	-1.3519574
90	0xbfb7d605	-1.4362189
91	0xbfabf349	-1.343362
92	0xbfadb1f1	-1.3569928
93	0xbfbdf962	-1.484173
94	0xbfaae23d	-1.3350292
95	0x3f300c50	0.6876879
96	0x3f67616a	0.9038302
97	0xbfb8d129	-1.4438831
98	0xbf9d6086	-1.2295082
99	0x3f1dd4c6	0.6165279
100	0x3f2f64cd	0.68513185
101	0xbfa7786b	-1.3083624
102	0xbfa03fd3	-1.2519478
103	0x3fa128ff	1.2590636
104	0xbfa46f5e	-1.2846487
105	0xbface876	-1.3508441
106	0x3fa13f18	1.259738
107	0x3fa429b2	1.2825224
108	0x3fa5cb10	1.2952595
109	0x3fa76392	1.3077261
110	0xbf9f69b6	-1.2454135
111	0xbfa56d01	-1.292389
112	0xbfa088e4	-1.2541776
113	0xbfa5131f	-1.289646
114	0xbf9e8d20	-1.2386818
115	0xbfb06b6c	-1.3782783
116	0xbfa84854	-1.3147073
117	0xbf44f355	-0.76933795
118	0xbfa3134f	-1.2740268
119	0x3fa5c62f	1.2951106
120	0x3f9df03f	1.2338942
121	0xbfaeadce	-1.3646791
122	0xbfb1c7f2	-1.3889143
123	0x3fad017a	1.3516076
124	0x3f9d6bc6	1.2298515
125	0xbf60bddb	-0.87789696
126	0xbf9cb841	-1.224373
127	0x3faa193a	1.3288949
128	0xbfaeb350	-1.3648472
129	0xbf9d288f	-1.2278003
130	0x3fa6f078	1.3042135
131	0x3fafe005	1.374024
132	0xbf9fbeae	-1.2480066
133	0xbfa1ddc2	-1.26458
134	0xbfa880f9	-1.3164359
135	0xbfa3ffbd	-1.281242
136	0xbf9e13a4	-1.2349744
137	0xbfa540d0	-1.2910404
138	0xbf15b924	-0.5848563
139	0x3fb7cdfc	1.4359736
140	0xbfad3d10	-1.353426
141	0xbfae1bc8	-1.3602228
142	0xbf94ef69	-1.1635562
143	0xbfb496d1	-1.4108526
144	0xbfae5390	-1.3619251
145	0x3fa97ba8	1.3240862
146	0xbfa9a188	-1.325242
147	0xbfa112b4	-1.2583833
148	0xbf872dc5	-1.0560843
149	0x3fadbaf2	1.3572676
150	0xbfb16e2d	-1.3861748
151	0xbfb82bf8	-1.4388418
152	0x3f9a02c1	1.203209
153	0xbfac21ba	-1.3447793
154	0xbfb19303	-1.387299
155	0xbf88e259	-1.0694076
156	0xbf542fbd	-0.8288534
157	0xbf9d0811	-1.2268087
158	0xbf8e1079	-1.1098777
159	0xbfb08646	-1.3790977
160	0xbfa71cb2	-1.3055632
161	0xbfa9646a	-1.3233769
162	0xbf9de677	-1.2335957
163	0xbf9d1b06	-1.2273872
164	0xbf8d844b	-1.1055998
165	0xbfb48642	-1.4103472
166	0xbf9c1291	-1.2193166
167	0xbf9ce429	-1.2257129
168	0xbfb72da9	-1.4310809
169	0xbfa8f745	-1.3200461
170	0xbfb67030	-1.4252987
171	0xbfa2e9dc	-1.2727618
172	0xbf815208	-1.0103159
173	0xbfa86603	-1.3156132
174	0xbfb2f1ff	-1.3980101
175	0xbf93ce8e	-1.154741
176	0xbfad2beb	-1.3529028
177	0xbfaee520	-1.3663673
178	0xbf8adcd3	-1.084864
179	0xbfbc50be	-1.471214
180	0xbfa1e6f9	-1.2648612
181	0xbf93463d	-1.150581
182	0xbf8d965a	-1.1061509
183	0xbc7f1835	-0.015569736
184	0xbf9c0cf5	-1.2191454
185	0xbfa0bdeb	-1.2557958
186	0xbfa64202	-1.2988894
187	0xbfb6f82c	-1.4294486
188	0xbf0adb0d	-0.54240495
189	0xbf831b5a	-1.0242722
190	0xbfb30049	-1.3984462
191	0xbe8b776c	-0.2723955
192	0xbfaebc93	-1.3651298
193	0xbfb22059	-1.3916122
194	0xbf95c51d	-1.1700779
195	0xbf8da120	-1.1064796
196	0xbf9736cc	-1.1813598
197	0xbf848057	-1.0351666
198	0xbfbd2974	-1.4778275
199	0xbf998877	-1.1994771
200	0xbfa8258a	-1.3136456
201	0xbe9505cd	-0.29105988
202	0xbfa83865	-1.314221
203	0xbf9602d0	-1.1719608

lstm1.bias_hh f4 [204]
0	0xbfbbbc57	-1.4666852
1	0xbfb1fee4	-1.3905911
2	0xbf9c7c35	-1.2225405
3	0xbf57bf90	-0.84276676
4	0xbfba98d4	-1.457789
5	0xbf9c0152	-1.2187903
6	0xbfa24210	-1.2676411
7	0xbfbf8b8f	-1.4964465
8	0xbfa6007a	-1.2968895
9	0xbf9fd29b	-1.2486147
10	0xbf9f8aca	-1.246423
11	0xbf993e92	-1.197222
12	0xbf9fd024	-1.2485394
13	0xbf9c77c8	-1.2224054
14	0xbfaed11c	-1.3657565
15	0xbfb3dc76	-1.4051654
16	0xbfaebefa	-1.3652031
17	0xbf8c7dc5	-1.0975882
18	0xbf9c67b1	-1.2219144
19	0xbf8fcd5c	-1.1234546
20	0xbfae13f2	-1.3599837
21	0xbf9dd732	-1.2331297
22	0xbfb21c83	-1.3914951
23	0xbfa97179	-1.3237754
24	0xbfa0a583	-1.255051
25	0xbfa83e19	-1.3143951
26	0xbfa62b42	-1.2981951
27	0xbfaeb877	-1.3650044
28	0xbf8b9083	-1.0903476
29	0xbfa28bf0	-1.2698956
30	0x3d659676	0.056051694
31	0xbfa4c707	-1.2873238
32	0xbfb053c8	-1.3775568
33	0xbf911afc	-1.133636
34	0xbfbaef4f	-1.4604281
35	0xbf45356b	-0.77034634
36	0xbf8027c6	-1.0012138
37	0xbfba6679	-1.4562522
38	0xbe94dc42	-0.29074293
39	0xbfbc57c4	-1.4714284
40	0xbfba7362	-1.4566462
41	0xbf9f2c0e	-1.243532
42	0xbf9c5eef	-1.2216471
43	0xbf9b6910	-1.2141438
44	0xbf883146	-1.0640037
45	0xbfb0dbae	-1.3817041
46	0xbfabaa85	-1.3411413
47	0xbf9b7c07	-1.2147225
48	0xbce69549	-0.028147357
49	0xbf9d7128	-1.2300158
50	0xbfac8454	-1.3477883
51	0xbfa8ee6e	-1.3197763
52	0xbfb14b69	-1.3851138
53	0xbfb7518f	-1.4321765
54	0x3f4f01bf	0.8086204
55	0xbfa0cf70	-1.2563305
56	0xbfbf3b9b	-1.4940065
57	0xbfab126a	-1.3364995
58	0xbfaf9c9a	-1.3719666
59	0xbfadd802	-1.3581545
60	0xbf7abe09	-0.9794622
61	0xbfab4ebe	-1.3383405
62	0xbfa41d08	-1.282136
63	0xbfafcdde	-1.3734701
64	0xbfb23905	-1.3923651
65	0xbfbe5ff5	-1.4873034
66	0xbfaa23bc	-1.3292155
67	0xbf9f6b2f	-1.2454585
68	0xbf90dc7b	-1.1317285
69	0xbfbdea5c	-1.4837146
70	0xbfaee92f	-1.3664912
71	0xbf962261	-1.1729242
72	0xbf4c6728	-0.79844904
73	0xbfa4225d	-1.2822987
74	0xbf6e07ed	-0.92980844
75	0xbf9d801d	-1.2304722
76	0xbfbe15b6	-1.4850376
77	0xbf9bc2de	-1.2168844
78	0xbfa55528	-1.2916613
79	0xbfb579b2	-1.4177763
80	0xbfa5a50a	-1.2940991
81	0xbf37d55a	-0.71809924
82	0xbf30640a	-0.6890265
83	0xbfad3d0e	-1.3534257
84	0xbfabaeff	-1.341278
85	0xbfaddc8f	-1.3582934
86	0xbfafb335	-1.3726565
87	0xbfa6d8d6	-1.3034923
88	0xbf9dc7ac	-1.232656
89	0xbfbc8a1e	-1.472965
90	0xbf9c6c8d	-1.2220627
91	0xbfae4e11	-1.3617574
92	0xbfb14742	-1.3849871
93	0xbfb1cc4b	-1.389047
94	0xbfa89efa	-1.3173516
95	0x3f680aec	0.90641665
96	0x3f8601e6	1.0469329
97	0xbfb610ae	-1.422384
98	0xbfbe0598	-1.4845457
99	0x3f4a595b	0.79042596
100	0x3f3b8cb4	0.7326157
101	0xbfa9ec4d	-1.3275238
102	0xbfb581f4	-1.4180284
103	0x3fa631c2	1.2983935
104	0xbface32f	-1.3506831
105	0xbfafeb93	-1.3743767
106	0x3fa0d491	1.256487
107	0x3f9f1cec	1.2430701
108	0x3fa65ede	1.2997701
109	0x3fac693c	1.3469615
110	0xbfbb3d4f	-1.4628085
111	0xbfb08045	-1.3789145
112	0xbfb742fe	-1.4317319
113	0xbfac93dd	-1.3482624
114	0xbfa11678	-1.2584982
115	0xbfa03f21	-1.2519265
116	0xbfa8ffce	-1.3203065
117	0xbf4d5128	-0.8020196
118	0xbfa4b0c1	-1.2866441
119	0x3fa6cfdc	1.3032184
120	0x3fa25c78	1.2684469
121	0xbf9f2b18	-1.2435026
122	0xbf9fd4d6	-1.2486827
123	0x3f9e5210	1.2368793
124	0x3fb6004b	1.421884
125	0xbf3c6606	-0.73593175
126	0xbfb26ca5	-1.3939406
127	0x3f9f866b	1.2462896
128	0xbfaabbec	-1.3338599
129	0xbfa5e93a	-1.29618
130	0x3fab877d	1.3400723
131	0x3fa2b7be	1.2712324
132	0xbfb54505	-1.4161688
133	0xbfb3ea9e	-1.4055974
134	0xbf9e07b5	-1.2346102
135	0xbfb3d842	-1.4050372
136	0xbfbc1714	-1.4694543
137	0xbfa2157f	-1.266281
138	0xbf35659a	-0.70858157
139	0x3fa1b4ce	1.2633302
140	0xbfa24bea	-1.2679417
141	0xbfa28f78	-1.2700033
142	0xbf8f59c1	-1.1199266
143	0xbf9dd8f1	-1.233183
144	0xbfa04d2c	-1.2523551
145	0x3fad1634	1.3522401
146	0xbfae81cd	-1.3633362
147	0xbfad4c65	-1.3538939
148	0xbf8f8e71	-1.1215345
149	0x3f9d307c	1.2280421
150	0xbfa6df04	-1.3036809
151	0xbfa156cc	-1.2604613
152	0x3fa3f633	1.2809509
153	0xbfa747c9	-1.3068782
154	0xbfb001f4	-1.3750596
155	0xbf9f0133	-1.2422241
156	0xbf3d91d4	-0.7405064
157	0xbf9ce608	-1.22577
158	0xbfa7d367	-1.311139
159	0xbfbb0d97	-1.4613522
160	0xbfa6e6d0	-1.3039188
161	0xbfa99e20	-1.3251381
162	0xbfa59ccd	-1.2938477
163	0xbfa9463e	-1.3224561
164	0xbfa44cec	-1.2835975
165	0xbfb41345	-1.406838
166	0xbf9224ca	-1.1417477
167	0xbfb0bb4c	-1.3807158
168	0xbfabe027	-1.3427781
169	0xbf9b60db	-1.2138933
170	0xbfadb2b0	-1.3570156
171	0xbf9d4ef6	-1.2289722
172	0xbf83efbe	-1.0307539
173	0xbfb4d98e	-1.4128892
174	0xbfaff93d	-1.3747936
175	0xbfa17e2b	-1.2616628
176	0xbfadf875	-1.3591448
177	0xbfa7ad75	-1.309981
178	0xbfa185e8	-1.261899
179	0xbfaea92e	-1.364538
180	0xbfb85afc	-1.4402766
181	0xbf9acff5	-1.2094713
182	0xbfa85b75	-1.315291
183	0x3ca461da	0.02006619
184	0xbf9f5a15	-1.2449366
185	0xbfb6271d	-1.4230686
186	0xbf94b56f	-1.1617869
187	0xbfb0e6b3	-1.3820404
188	0xbefa8f54	-0.48937476
189	0xbf85afde	-1.0444295
190	0xbfa74994	-1.3069329
191	0xbe8eb60c	-0.27873266
192	0xbfb7d46e	-1.4361703
193	0xbfa839a3	-1.3142589
194	0xbfa652f0	-1.299406
195	0xbf8da1fa	-1.1065056
196	0xbf9afadd	-1.2107807
197	0xbf91d695	-1.139361
198	0xbfad124c	-1.3521209
199	0xbfa29019	-1.2700225
200	0xbf99f87b	-1.2028955
201	0xbe2888fe	-0.16458508
202	0xbfaea10b	-1.3642896
203	0xbfa3069c	-1.2736392

lstm2.weight_ih f4 [204, 51]
0	0xbe9635b9	-0.29337862
1	0x3fa30279	1.273513
2	0xbfbdd083	-1.4829258
3	0x3fa260f0	1.2685833
4	0x3fb76618	1.4328032
5	0x3fb886a3	1.4416088
6	0x3fbdfab9	1.484214
7	0xbf4de21e	-0.8042315
8	0x3fa6875e	1.3010061
9	0x3f9de785	1.2336279
10	0x3f2621d7	0.64895386
11	0xbfa2babd	-1.2713238
12	0xbfa21e8e	-1.2665575
13	0xbfbdbb97	-1.4822873
14	0xbee1fd64	-0.44138634
15	0xbfb8bd6f	-1.443281
16	0xbfb0657a	-1.3780968
17	0x3fbb7da1	1.4647714
18	0x3fa79938	1.3093634
19	0xbfb00f00	-1.3754578
20	0x3f1cf53d	0.61311704
21	0x3fab77d9	1.339595
22	0x3fb44c44	1.4085774
23	0x3faff580	1.3746796
24	0xbfbb2532	-1.4620726
25	0x3f9facce	1.2474611
26	0xbfb8425a	-1.4395249
27	0xbf9ff853	-1.2497658
28	0x3facb754	1.3493447
29	0x3fbe5652	1.4870093
30	0xbf1f92c3	-0.62333316
31	0x3fb65966	1.4246032
32	0xbfabfd72	-1.343672
33	0xbfac47b6	-1.3459384
34	0xbfb90e8a	-1.4457562
35	0xbfbc3da5	-1.4706312
36	0xbfb81c64	-1.4383664
37	0xbf95bc4e	-1.1698091
38	0xbf9ff1e9	-1.24957
39	0xbf96978d	-1.1765
40	0x3fa90188	1.3203592
41	0xbf9fba5d	-1.2478749
42	0xbfb78ed6	-1.4340465
43	0x3fbe9796	1.489001
44	0x3fa481b9	1.2852088
45	0x3f41abce	0.7565278
46	0xbfa887c1	-1.3166429
47	0x3fb50e67	1.414502
48	0x3fc1200e	1.5087907
49	0x3fb69ced	1.426664
50	0x3faa75fc	1.3317256
51	0xbfb78493	-1.4337333
52	0x3fa830e9	1.3139926
53	0xbfa277c8	-1.2692804
54	0x3eaf5088	0.34241128
55	0x3f9f97d3	1.2468208
56	0x3fa73f93	1.3066276
57	0x3fb5ab88	1.4192972
58	0x3fa95a6f	1.3230723
59	0xbef89bc4	-0.4855634
60	0xbf9c94aa	-1.2232869
61	0xbf9f68fa	-1.2453911
62	0xbfb32596	-1.3995845
63	0xbfad6e71	-1.3549329
64	0xbf9fac01	-1.2474366
65	0xbfb3c227	-1.4043626
66	0xbf983c2b	-1.1893362
67	0xbfb7890d	-1.43387
68	0x3fbd461b	1.478702
69	0x3f9fd6b0	1.2487392
70	0xbfaa83bb	-1.3321451
71	0xbe1eb53e	-0.15498826
72	0x3f9fb491	1.247698
73	0x3fb32852	1.399668
74	0xbebf09aa	-0.3731206
75	0xbf9ef007	-1.2417
76	0x3f9cbc25	1.2244917
77	0x3f732aeb	0.9498736
78	0xbfaf824e	-1.3711641
79	0x3fb08c12	1.3792746
80	0x3fb3b5ca	1.4039853
81	0xbeb9df62	-0.3630324
82	0xbfafa399	-1.3721801
83	0xbfa0bd2c	-1.2557731
84	0x3ee9aeba	0.45641118
85	0x3f1da47b	0.615791
86	0xbfbfc591	-1.4982167
87	0xbfa9655a	-1.3234055
88	0x3f0893a4	0.5335028
89	0xbfa05e76	-1.2528827
90	0xbec16d4c	-0.377787
91	0x3f1383d9	0.5762306
92	0xbfb71ed1	-1.430628
93	0xbfb768a8	-1.4328814
94	0x3fa29ebe	1.2704694
95	0x3e742499	0.23842086
96	0xbfb712f4	-1.4302659
97	0xbfba1a20	-1.4539223
98	0x3fa9eecc	1.3276
99	0x3eda5e43	0.4265004
100	0xbf9eb8ac	-1.2400107
101	0x3f87859b	1.0587648
102	0x3f96c6b0	1.1779385
103	0x3fa03e45	1.2519003
104	0xbfab37f0	-1.3376446
105	0x3fa3b631	1.2789975
106	0x3faa3464	1.3297238
107	0x3fb45d74	1.409102
108	0x3fb301a4	1.3984876
109	0xbf75a714	-0.95958066
110	0x3fb54b95	1.4163691
111	0x3fa17d89	1.2616435
112	0x3f6926d5	0.9107488
113	0xbfb2e671	-1.3976575
114	0xbfafb69d	-1.3727604
115	0xbf9ecc53	-1.2406105
116	0x3f9974f3	1.1988815
117	0xbfaedefd	-1.3661801
118	0xbfa80188	-1.3125467
119	0x3faee26c	1.3662848
120	0x3fa6dcb8	1.3036108
121	0xbfa591f3	-1.2935165
122	0x3f4add4c	0.7924392
123	0xbe71db70	-0.23618865
124	0x3fb56026	1.4169967
125	0x3fb2237a	1.3917077
126	0xbfb2374e	-1.3923128
127	0x3fbe0a2b	1.4846853
128	0xbfb40ff8	-1.4067373
129	0xbfa16ce5	-1.2611357
130	0x3fa10cd3	1.2582039
131	0x3fa7f9d8	1.3123121
132	0xbee8d864	-0.45477593
133	0x3fb353c8	1.4009943
134	0xbfbc6a34	-1.4719911
135	0xbfade8c8	-1.3586664
136	0xbfa92efd	-1.3217465
137	0xbfb0f356	-1.382426
138	0xbfb0f025	-1.3823286
139	0xbf9b4fff	-1.2133788
140	0xbf80af1c	-1.0053439
141	0x3f4f054d	0.80867463
142	0x3fb83979	1.4392539
143	0xbfb2d56e	-1.3971384
144	0xbfaf7b9f	-1.3709601
145	0x3fb73752	1.4313757
146	0x3fbe1edb	1.4853166
147	0x3f57e0f8	0.8432765
148	0xbfba8f7a	-1.4575036
149	0x3fbb3aee	1.4627359
150	0x3fa5d8dd	1.2956806
151	0x3fba345e	1.4547231
152	0x3fac0733	1.3439697
153	0xbfb8cf31	-1.443823
154	0x3fbda1b0	1.4814968
155	0x3f9cde71	1.2255384
156	0x3f86f0fa	1.054229
157	0x3fbfcba7	1.4984025
158	0x3faa1880	1.3288727
159	0x3f17243a	0.5903965
160	0x3fad3114	1.3530602
161	0x3f0a8b10	0.5411844
162	0xbfb9e5a2	-1.4523203
163	0xbfa8a219	-1.3174468
164	0x3fa3f36e	1.2808664
165	0xbfa7632c	-1.307714
166	0x3fb42cf2	1.4076216
167	0xbfad4b21	-1.3538553
168	0x3fa8d6dd	1.3190571
169	0xbebb49e7	-0.3657982
170	0x3fb207fc	1.3908687
171	0x3fb24c26	1.3929489
172	0x3f371f42	0.7153207
173	0xbfad7dd1	-1.3554021
174	0x3fb6295b	1.4231371
175	0xbf991bea	-1.1961644
176	0xbfa28894	-1.269793
177	0x3fb8834d	1.441507
178	0x3f13b0a7	0.57691425
179	0x3f9efdc5	1.2421194
180	0xbf9c79b9	-1.2224647
181	0xbf9aeb2b	-1.2103018
182	0xbfa4d257	-1.2876691
183	0x3e11679e	0.14199683
184	0xbfbff91f	-1.4997901
185	0xbfade9fa	-1.3587029
186	0x3fb85565	1.440106
187	0x3faf5ed8	1.3700819
188	0xbfadfd34	-1.3592896
189	0xbfa0065c	-1.2501941
190	0xbf30a669	-0.6900392
191	0xbf863eaa	-1.0487874
192	0xbfc0367e	-1.501663
193	0xbfba5da8	-1.4559832
194	0x3fb90047	1.445321
195	0xbfba8402	-1.4571536
196	0xbf9d23bf	-1.2276534
197	0xbe96169d	-0.29314128
198	0xbfa4e22b	-1.2881521
199	0xbfa3e4e6	-1.2804229
200	0x3f005135	0.5012391
201	0xbefea821	-0.49737647
202	0xbfb59ab5	-1.4187838
203	0xbfab51a2	-1.3384287
204	0x3f50e7e0	0.81603813
205	0x3fa8e2ac	1.3194175
206	0xbf9e67fb	-1.2375482
207	0x3fb28bd7	1.3948926
208	0x3faaf016	1.3354518
209	0x3fb71cb5	1.4305636
210	0x3fa765b9	1.3077918
211	0xbf5ddc99	-0.8666473
212	0x3fb06a4f	1.3782443
213	0x3fba574f	1.4557894
214	0x3f40527d	0.7512587
215	0xbfba5ffb	-1.4560541
216	0xbfabdfef	-1.3427714
217	0xbfb2e9ba	-1.3977578
218	0x3ed72fcc	0.42028654
219	0xbfacded8	-1.3505507
220	0xbf9c8c7d	-1.2230374
221	0x3fac7b3a	1.3475106
222	0x3fa7b3a4	1.3101697
223	0xbfb61ae1	-1.4226953
224	0x3f29d084	0.66333795
225	0x3fb6f654	1.4293923
226	0x3fb544b3	1.416159
227	0x3f65cba2	0.89763844
228	0xbfa435d8	-1.2828932
229	0x3fa6cff0	1.3032207
230	0xbfae3709	-1.3610545
231	0xbfaeed79	-1.3666221
232	0x3fb65c92	1.4247
233	0x3f9cbcb8	1.2245092
234	0xbeee31d9	-0.46522406
235	0x3fa7e3d9	1.3116409
236	0xbfb8a00d	-1.4423844
237	0xbf316ec0	-0.69309616
238	0xbfb9c5d3	-1.4513496
239	0xbfa5cce0	-1.2953148
240	0xbfa4ee1d	-1.2885166
241	0xbfaef94e	-1.3669832
242	0xbf7efc15	-0.99603397
243	0x3f20393a	0.6258732
244	0x3fa49257	1.2857159
245	0xbfb48b06	-1.4104927
246	0xbf9d8613	-1.2306541
247	0x3fbb2ef1	1.46237
248	0x3fabd9c1	1.3425828
249	0x3f45cce7	0.7726578
250	0xbfa19653	-1.2624
251	0x3faf5580	1.3697968
252	0x3fbec8b0	1.4904995
253	0x3fa13712	1.2594931
254	0x3fac8962	1.3479426
255	0xbfad9b00	-1.3562927

lstm2.weight_hh f4 [204, 51]
0	0xbfa75cf9	-1.3075248
1	0xbfa56285	-1.2920691
2	0xbf9f7804	-1.2458501
3	0x3fa666d6	1.3000133
4	0x3fa15e8e	1.2606981
5	0xbfb0aea8	-1.3803301
6	0xbfa6b022	-1.3022501
7	0xbfb40768	-1.406476
8	0x3fa661e9	1.299863
9	0x3f9c91a3	1.2231945
10	0xbf9e4e3f	-1.2367629
11	0xbfaab7c1	-1.3337327
12	0xbfb0486b	-1.37721
13	0x3fa0a87d	1.2551419
14	0xbf2bfcc1	-0.67182547
15	0x3f9f131f	1.242771
16	0xbfac8bab	-1.3480123
17	0x3e9fcbb5	0.31210104
18	0x3fb45e76	1.4091327
19	0xbfa80534	-1.3126588
20	0xbfa0690d	-1.2532059
21	0xbfa0ee56	-1.2572734
22	0xbfae7648	-1.3629847
23	0xbfa9f37a	-1.3277428
24	0x3faac546	1.3341453
25	0xbfaa98ba	-1.3327858
26	0xbfbad665	-1.4596678
27	0xbf9ee7b4	-1.241446
28	0xbfa7044c	-1.3048186
29	0x3f9f6ec2	1.2455676
30	0x3fb26f35	1.3940188
31	0x3fa6c781	1.3029634
32	0xbf20bdcf	-0.62789625
33	0xbfbe98d7	-1.4890393
34	0x3fbaba2e	1.4588068
35	0xbfa593f6	-1.2935779
36	0x3fa800ee	1.3125284
37	0xbfa7406b	-1.3066534
38	0x3fa83937	1.314246
39	0x3fa47953	1.2849525
40	0x3faa41aa	1.3301289
41	0xbf56d867	-0.83923954
42	0xbfb3165f	-1.3991202
43	0xbfa452d3	-1.2837776
44	0x3fb81508	1.4381418
45	0x3fb6adf7	1.427184
46	0x3fa478bc	1.2849345
47	0xbfaaa01e	-1.3330114
48	0xbfa23271	-1.2671643
49	0x3f40d13d	0.7531927
50	0x3fa38d87	1.2777566
51	0xbfb5bea9	-1.419881
52	0xbfa22087	-1.2666177
53	0xbfb4e9f7	-1.41339
54	0x3fb35bcc	1.4012389
55	0x3fab1f8e	1.3369005
56	0xbfbd615e	-1.4795339
57	0xbfa517da	-1.2897904
58	0xbfb374ef	-1.402006
59	0x3fbbe74c	1.4679961
60	0x3f9eac70	1.2396374
61	0xbfb3e6f6	-1.4054859
62	0xbfa68034	-1.3007874
63	0xbfa3b8d1	-1.2790776
64	0x3fbc238f	1.4698352
65	0xbed85306	-0.42250842
66	0x3f34bfb9	0.70605046
67	0xbfaea734	-1.3644776
68	0x3f68ee33	0.90988463
69	0x3fb1f268	1.3902102
70	0x3f06da8f	0.52677244
71	0xbf6d267c	-0.9263685
72	0xbf407a9d	-0.75187093
73	0xbfae255d	-1.3605152
74	0xbf607ab5	-0.87687236
75	0x3fb80f57	1.4379681
76	0xbfbe261f	-1.4855384
77	0xbfaaa485	-1.3331457
78	0xbf52e9b2	-0.8238784
79	0xbfa041e4	-1.2520108
80	0x3fa0eaea	1.257169
81	0x3f9fa793	1.2473015
82	0x3fb1965a	1.3874009
83	0x3de8e58c	0.113719076
84	0xbfa7e235	-1.3115908
85	0x3e40b50c	0.18819064
86	0xbfaf0d2e	-1.3675897
87	0x3fae0eba	1.3598244
88	0x3f2d80dd	0.67774755
89	0x3fad1a97	1.352374
90	0x3fb9ccfd	1.4515682
91	0x3f532632	0.82480156
92	0xbf7138ad	-0.94227105
93	0xbfa94f17	-1.3227261
94	0xbfbece86	-1.4906776
95	0x3f212496	0.6294645
96	0x3f9730f9	1.181182
97	0x3fa353a3	1.2759899
98	0xbfa025e2	-1.2511561
99	0x3e1adb57	0.15122734
100	0x3eea0d8f	0.4571347
101	0xbe94396f	-0.28950068
102	0xbfb41abd	-1.407066
103	0xbf9df230	-1.2339535
104	0xbfa901b0	-1.320364
105	0x3f9c4240	1.2207718
106	0x3fab9480	1.3404694
107	0xbfa5e338	-1.2959967
108	0xbfa44d36	-1.2836063
109	0xbf0675e8	-0.5252366
110	0x3fb1ee77	1.3900899
111	0x3fab7c2a	1.3397267
112	0xbfabfd0a	-1.3436596
113	0xbfb598e2	-1.4187281
114	0xbfa7687e	-1.3078763
115	0x3fa4725d	1.2847401
116	0xbf84a258	-1.0362043
117	0x3fb1383b	1.3845285
118	0xbfbd49c5	-1.4788138
119	0xbf4346fd	-0.76280195
120	0x3fb6ab8c	1.4271102
121	0xbf988d27	-1.1918076
122	0xbfbeff82	-1.4921725
123	0xbfa988b8	-1.3244848
124	0xbfa9bec1	-1.3261338
125	0xbfb3d2d8	-1.404872
126	0x3fa6db99	1.3035766
127	0xbfb0e544	-1.3819966
128	0xbfa27a99	-1.2693664
129	0xbfa88200	-1.3164673
130	0x3e8e5fed	0.2780756
131	0x3fa0db5e	1.2566946
132	0x3fa68af7	1.3011159
133	0x3fac99d1	1.3484441
134	0xbf652a98	-0.8951812
135	0xbfa848e7	-1.3147248
136	0x3fbdfc26	1.4842575
137	0xbfb2053f	-1.3907851
138	0x3f9d38c6	1.2282951
139	0xbfb4eb2e	-1.4134271
140	0x3fadb9b5	1.3572298
141	0x3fa8b3a3	1.3179821
142	0x3fb24da5	1.3929945
143	0xbf16e6df	-0.5894603
144	0xbfaed644	-1.3659139
145	0xbf9fdf85	-1.2490088
146	0x3fbec746	1.4904563
147	0x3fa707bc	1.3049235
148	0x3fa167b7	1.2609776
149	0xbfaf43cf	-1.3692569
150	0xbfbab540	-1.4586563
151	0x3f6751d0	0.9035921
152	0x3f9b4b55	1.2132365
153	0x3fa3cfe2	1.2797816
154	0x3f068fdb	0.52563256
155	0x3fa5c29c	1.2950015
156	0x3f149010	0.5803232
157	0xbfbe8b9e	-1.4886358
158	0x3fa56e28	1.2924242
159	0xbfaf09f5	-1.3674914
160	0xbfbe75f2	-1.4879744
161	0xbfa26ab8	-1.2688818
162	0xbfa2377c	-1.2673182
163	0xbf369569	-0.7132173
164	0x3fac097e	1.3440397
165	0x3fb8a82a	1.442632
166	0xbfa39967	-1.278119
167	0x3f0e9491	0.55695444
168	0xbfa071ee	-1.2534769
169	0x3f9fd40b	1.2486585
170	0x3fa5cbbb	1.2952799
171	0x3f319800	0.6937256
172	0x3fb44e58	1.4086409
173	0x3f0a723a	0.54080546
174	0x3fa84044	1.3144612
175	0x3fa77381	1.3082124
176	0xbfa84b2b	-1.314794
177	0xbfa40513	-1.2814049
178	0x3fb8b842	1.4431231
179	0x3fbb1d47	1.461831
180	0x3f0e6dd0	0.5563631
181	0xbfb4b224	-1.4116864
182	0x3fa9a3c3	1.3253101
183	0x3fb60e36	1.4223087
184	0xbfa11fa8	-1.2587786
185	0x3faa4b02	1.330414
186	0x3fa92ecb	1.3217405
187	0xbfabbf78	-1.3417807
188	0x3fbb7c68	1.4647341
189	0xbfa55084	-1.2915196
190	0x3fa06acb	1.2532591
191	0xbfb08cd5	-1.3792979
192	0xbfb6a251	-1.4268285
193	0xbfb06239	-1.3779975
194	0x3f890f4f	1.0707797
195	0xbfa3548d	-1.2760178
196	0x3fb03b2f	1.3768061
197	0xbfbcb613	-1.4743065
198	0xbfa2ad5d	-1.2709156
199	0xbfa8349b	-1.3141054
200	0x3f4866f6	0.78282106
201	0x3fa70272	1.3047621
202	0xbfab88b2	-1.3401091
203	0xbf0ee62a	-0.5581995
204	0xbfb4ea5e	-1.4134023
205	0xbfa9ae41	-1.3256303
206	0xbfb720a3	-1.4306835
207	0x3f9fdfbc	1.2490153
208	0x3fa47c1a	1.2850373
209	0xbfb8b0db	-1.4428972
210	0xbfbd8601	-1.480652
211	0xbfaf7d1a	-1.3710053
212	0x3fbbecaa	1.4681599
213	0x3fa2bce5	1.2713896
214	0xbfb9e4d0	-1.4522953
215	0xbfb600b2	-1.4218962
216	0xbfae5e72	-1.3622572
217	0x3fb9a282	1.4502718
218	0xbf30d02c	-0.69067645
219	0x3fafaf9e	1.3725469
220	0xbfa46ef8	-1.2846365
221	0xbf3aeceb	-0.7301776
222	0x3fbebe4f	1.4901828
223	0xbfa82bf5	-1.3138415
224	0xbf9e8516	-1.2384365
225	0xbfaba74f	-1.3410434
226	0xbfb0712b	-1.3784536
227	0xbf9ef8b6	-1.241965
228	0x3fbea5da	1.4894364
229	0xbfb79fee	-1.4345682
230	0xbfb6a0e7	-1.4267853
231	0xbfb33c43	-1.4002765
232	0xbf848641	-1.0353471
233	0x3faa9b0b	1.3328565
234	0x3fa5c604	1.2951055
235	0x3fb407ab	1.406484
236	0xbf3f910c	-0.748307
237	0xbfb2a3af	-1.3956202
238	0x3fb214b5	1.3912569
239	0xbfad3c57	-1.3534039
240	0x3fa13483	1.259415
241	0xbeb1c630	-0.34721518
242	0x3fb7bd63	1.4354671
243	0x3fa555dc	1.2916827
244	0x3fb6350c	1.4234939
245	0xbefa8a2c	-0.48933542
246	0xbfbb5fa6	-1.4638565
247	0xbfb32c9b	-1.3997988
248	0x3fb97759	1.4489547
249	0x3fbf4138	1.4941778
250	0x3fa2ad5b	1.2709154
251	0xbfa5ad0d	-1.2943436
252	0xbfbb62d3	-1.4639534
253	0x3f2f6d61	0.68526274
254	0x3fadb09d	1.3569523
255	0xbfadcdaf	-1.3578395

lstm2.bias_ih f4 [204]
0	0xbfb663f5	-1.4249254
1	0xbfbc1dc3	-1.4696583
2	0xbfa68e53	-1.3012184
3	0xbfc03e1f	-1.5018958
4	0xbfa02c4b	-1.2513517
5	0xbfae8754	-1.3635049
6	0xbfb30919	-1.3987151
7	0xbfbae3b3	-1.4600738
8	0xbfba8078	-1.4570456
9	0xbfb74ccf	-1.4320315
10	0xbf670606	-0.90243566
11	0xbfadca0e	-1.3577287
12	0xbfb1d51b	-1.389316
13	0xbfb033cb	-1.3765806
14	0xbfc051c3	-1.5024952
15	0xbfa7e82c	-1.3117728
16	0xbfb26890	-1.393816
17	0xbfb5e848	-1.4211512
18	0xbfa59e52	-1.293894
19	0xbfa1d063	-1.264172
20	0xbfa35759	-1.2761031
21	0xbfbc39ed	-1.4705178
22	0xbfb715f6	-1.4303577
23	0xbfa3cf9e	-1.2797735
24	0xbfac9a3c	-1.3484569
25	0xbfa7b678	-1.310256
26	0xbf9da8c1	-1.2317125
27	0xbfbbd328	-1.4673815
28	0xbfbd7c13	-1.480349
29	0xbfa456c1	-1.2838975
30	0xbfb9814a	-1.4492581
31	0xbf9eaa7a	-1.2395775
32	0xbfb2b9ee	-1.3962991
33	0xbf9e4cad	-1.236715
34	0xbfa158e7	-1.2605256
35	0xbfa00b64	-1.2503476
36	0xbfa6d686	-1.3034217
37	0xbfb3d59d	-1.4049565
38	0xbfa8e354	-1.3194375
39	0xbfaa9c4d	-1.3328949
40	0xbfb053cb	-1.3775572
41	0xbf9cdb23	-1.2254375
42	0xbfa1011e	-1.2578466
43	0xbfb175b8	-1.386405
44	0xbfbef90e	-1.4919755
45	0xbfbad0e4	-1.4594998
46	0xbf9c633d	-1.2217785
47	0xbfb63f91	-1.4238149
48	0xbfbb0e74	-1.4613786
49	0xbfb0ea8a	-1.3821576
50	0xbfa7fad3	-1.312342
51	0xbfb79492	-1.4342215
52	0xbfbacc55	-1.4593607
53	0xbfb0d6b2	-1.381552
54	0x3ed00c45	0.4063436
55	0xbfb429db	-1.4075273
56	0xbfa700fa	-1.3047173
57	0xbf53ba87	-0.82706493
58	0xbfb5cce5	-1.4203154
59	0xbfa240c0	-1.267601
60	0xbfba0739	-1.4533454
61	0xbfbf968b	-1.4967817
62	0xbfbda07c	-1.4814601
63	0xbfbc4286	-1.4707801
64	0xbfa4b428	-1.2867479
65	0xbfbf7652	-1.4957983
66	0xbfa11f30	-1.2587643
67	0xbfa86f73	-1.3159012
68	0xbfb6ef3c	-1.4291759
69	0xbfb5800f	-1.4179705
70	0xbfba5c7d	-1.4559475
71	0xbfa4770b	-1.2848829
72	0xbfb488f5	-1.4104296
73	0xbfa3bdbd	-1.2792279
74	0xbfa8b958	-1.3181562
75	0xbfa745fc	-1.3068233
76	0xbfa1fb98	-1.2654905
77	0xbfb3d7f1	-1.4050275
78	0xbfb987f1	-1.4494611
79	0xbfb30a67	-1.398755
80	0xbf363b65	-0.7118438
81	0x3fa0b920	1.2556496
82	0xbfa8444e	-1.3145845
83	0xbfaa3eb6	-1.3300388
84	0xbfaeefce	-1.3666933
85	0xbfb5319d	-1.4155766
86	0xbfaafd02	-1.3358462
87	0xbfbc9e10	-1.4735737
88	0xbfb8675f	-1.4406546
89	0xbfb72e25	-1.4310957
90	0xbfae2bc9	-1.3607112
91	0xbfb0eda4	-1.3822522
92	0xbfa4e4d7	-1.2882336
93	0xbfb471ca	-1.4097226
94	0xbfa723d5	-1.305781
95	0xbfbfd229	-1.4986011
96	0xbfade6d4	-1.3586068
97	0xbfa49d4d	-1.2860504
98	0xbfbc3c55	-1.4705912
99	0xbfba7f33	-1.4570068
100	0xbf977676	-1.1833026
101	0xbfaacf5f	-1.3344535
102	0xbf99ea9a	-1.202472
103	0x3fa11361	1.2584039
104	0xbfa39e6c	-1.2782722
105	0x3fac4ccf	1.346094
106	0x3fa9b1da	1.3257401
107	0xbfae500a	-1.3618176
108	0xbfa426aa	-1.2824299
109	0xbfac45f1	-1.3458844
110	0x3f9e3c71	1.2362195
111	0x3fae751d	1.362949
112	0xbfb1138e	-1.3834093
113	0xbfaeef10	-1.3666706
114	0xbfb100fe	-1.3828428
115	0x3faae0a5	1.3349806
116	0x3fb22a19	1.3919097
117	0xbfaa36ad	-1.3297936
118	0xbfb1f001	-1.3901368
119	0x3fa9d1cf	1.3267154
120	0x3faaa6b1	1.333212
121	0x3fab33b0	1.3375149
122	0x3f95636d	1.1670967
123	0xbfab76fd	-1.3395687
124	0xbfa0d29d	-1.2564274
125	0x3fa9cd6b	1.3265814
126	0x3fa7fab4	1.3123384
127	0xbfb0db6f	-1.3816966
128	0xbfa40fb7	-1.2817296
129	0x3fb2c041	1.3964921
130	0xbfa48183	-1.2852024
131	0x3fa5edbb	1.2963175
132	0x3f9f3928	1.2439318
133	0x3fa09e63	1.2548336
134	0x3fb237d1	1.3923284
135	0xbf9d5f0f	-1.2294635
136	0xbfa8eb58	-1.3196821
137	0xbfae16b5	-1.360068
138	0x3fa402de	1.2813375
139	0xbfb0da3a	-1.3816597
140	0xbfbc0dd0	-1.4691715
141	0x3fa41614	1.2819238
142	0x3fb29278	1.3950949
143	0xbfafe4bf	-1.3741683
144	0xbfa04893	-1.2522148
145	0xbfa6877a	-1.3010094
146	0x3fb073a7	1.3785294
147	0x3fad5d97	1.3544186
148	0x3f9ce9bf	1.2258834
149	0xbfaa4970	-1.3303661
150	0xbfb3c5ff	-1.4044799
151	0xbfa6b462	-1.3023798
152	0x3fa06f80	1.2534027
153	0xbf9c28df	-1.2199973
154	0xbfa9493c	-1.3225474
155	0xbfb56fba	-1.4174721
156	0xbfad5917	-1.3542813
157	0xbfb33f46	-1.4003685
158	0xbf9eb934	-1.240027
159	0xbfb6528d	-1.4243942
160	0xbfb4a192	-1.4111807
161	0xbfa933d5	-1.3218943
162	0xbfabb9e3	-1.3416103
163	0xbf845ede	-1.0341451
164	0xbfa3a788	-1.2785501
165	0xbfa8d82f	-1.3190974
166	0xbfbd113c	-1.4770885
167	0xbfb47201	-1.4097291
168	0xbfb1edb0	-1.3900661
169	0xbfba727b	-1.4566187
170	0xbfb7b94a	-1.4353421
171	0xbfacdb64	-1.3504453
172	0xbf9e21f9	-1.2354118
173	0xbf9f744f	-1.245737
174	0xbfa34e49	-1.2758266
175	0xbfabf732	-1.3434813
176	0xbfa24523	-1.2677349
177	0xbfa6cc31	-1.3031064
178	0xbfac5cd4	-1.3465829
179	0xbfba1e70	-1.4540539
180	0xbfbb8495	-1.4649836
181	0xbfa83e27	-1.3143967
182	0xbfb7c8cf	-1.4358157
183	0xbfae6bf4	-1.3626695
184	0xbf9cab50	-1.223978
185	0xbfadc73b	-1.3576425
186	0xbfb8dea6	-1.4442947
187	0xbfb329b2	-1.3997099
188	0xbfa718b5	-1.3054415
189	0xbfb9ceae	-1.4516199
190	0xbfadd48b	-1.3580488
191	0xbfa060dd	-1.252956
192	0xbfa77b16	-1.3084438
193	0xbfbd2266	-1.4776123
194	0xbf9adc03	-1.2098392
195	0xbfbef667	-1.4918946
196	0xbfb4ac59	-1.4115096
197	0xbfa69827	-1.3015183
198	0xbfb8d1ee	-1.4439065
199	0xbfbb9e5e	-1.4657705
200	0xbfb4a483	-1.4112705
201	0xbfa3885f	-1.2775992
202	0xbfa1e437	-1.2647771
203	0xbfa97563	-1.3238949

lstm2.bias_hh f4 [204]
0	0xbfa1ccd3	-1.2640632
1	0xbfa29963	-1.270306
2	0xbf9d8431	-1.2305967
3	0xbfa116fe	-1.2585142
4	0xbfa33fd7	-1.2753857
5	0xbfae3985	-1.3611304
6	0xbfbdcabd	-1.4827496
7	0xbfb848bf	-1.43972
8	0xbfbce707	-1.4758004
9	0xbfb58df9	-1.4183952
10	0xbf747de2	-0.9550458
11	0xbfb58af3	-1.4183029
12	0xbfb8e991	-1.4446279
13	0xbfb3aaf7	-1.4036549
14	0xbf9fa340	-1.2471695
15	0xbfb41fba	-1.4072182
16	0xbfa95b72	-1.3231032
17	0xbfc0b8ad	-1.5056359
18	0xbfa684bd	-1.3009259
19	0xbfa4f4c4	-1.2887197
20	0xbfb8092b	-1.4377798
21	0xbfa42c95	-1.2826105
22	0xbfa2b745	-1.271218
23	0xbf90ba4c	-1.1306853
24	0xbfa14450	-1.2598972
25	0xbfa6371e	-1.298557
26	0xbfa45e0e	-1.2841203
27	0xbf9ff2de	-1.2495992
28	0xbfba33e8	-1.454709
29	0xbf9f99fa	-1.2468865
30	0xbfafe79b	-1.3742555
31	0xbfbac426	-1.459111
32	0xbfae95e5	-1.3639494
33	0xbf9e8161	-1.2383233
34	0xbfbacd43	-1.4593891
35	0xbf9d895f	-1.2307547
36	0xbfbfe005	-1.499024
37	0xbfbcb801	-1.4743654
38	0xbfa6d0ee	-1.303251
39	0xbfabe575	-1.34294
40	0xbfa18f78	-1.2621908
41	0xbf9d53f9	-1.2291251
42	0xbfbf2e7a	-1.4936059
43	0xbfbdef94	-1.4838738
44	0xbfa8700b	-1.3159193
45	0xbfa6473a	-1.2990487
46	0xbfb3997c	-1.4031215
47	0xbfc0ac2b	-1.5052541
48	0xbfa31c05	-1.2742926
49	0xbfb628f8	-1.4231253
50	0xbf9b7c81	-1.214737
51	0xbfb251ec	-1.393125
52	0xbfbb65a8	-1.4640398
53	0xbfb811f5	-1.438048
54	0x3f13df66	0.57762754
55	0xbfb2a630	-1.3956966
56	0xbfbb0043	-1.4609455
57	0xbf553250	-0.83279896
58	0xbfadfe46	-1.3593223
59	0xbfa4694e	-1.2844636
60	0xbfbaa071	-1.4580213
61	0xbfbdfc87	-1.484269
62	0xbfacc99f	-1.349903
63	0xbfa4ba5c	-1.2869372
64	0xbfb494b9	-1.4107887
65	0xbfc05901	-1.5027162
66	0xbfa7ce90	-1.3109913
67	0xbfb9673d	-1.4484631
68	0xbfaf8151	-1.3711339
69	0xbfa11bee	-1.2586648
70	0xbfbd05d3	-1.4767402
71	0xbf9dc0c2	-1.232445
72	0xbfab6379	-1.3389732
73	0xbfa5578a	-1.291734
74	0xbfa08113	-1.253939
75	0xbfac0fc3	-1.344231
76	0xbf9f33e9	-1.2437717
77	0xbfbed04b	-1.4907316
78	0xbfa9dc43	-1.3270344
79	0xbfb0e531	-1.3819944
80	0xbf1f5196	-0.62233865
81	0x3fb0b848	1.3806238
82	0xbfa52f32	-1.2905028
83	0xbfb2b8ac	-1.3962607
84	0xbfb422b3	-1.4073089
85	0xbfbf455e	-1.4943044
86	0xbfa30ea2	-1.273884
87	0xbfbf4173	-1.4941849
88	0xbf9d887c	-1.2307277
89	0xbfa29d20	-1.2704201
90	0xbfbcba61	-1.4744378
91	0xbfba7e84	-1.456986
92	0xbfaa101a	-1.3286164
93	0xbfab638a	-1.3389752
94	0xbf9ebae6	-1.2400787
95	0xbfa0b957	-1.2556561
96	0xbfbdb3ff	-1.4820555
97	0xbfa4dcbc	-1.2879863
98	0xbfa8d2ca	-1.3189328
99	0xbfb23dd7	-1.3925122
100	0xbf989b74	-1.192244
101	0xbfa52297	-1.2901181
102	0xbfaa2669	-1.3292972
103	0x3fb9a0ba	1.4502175
104	0xbf9f865e	-1.2462881
105	0x3fa1a2ae	1.2627771
106	0x3f9f13bd	1.2427899
107	0xbf9ef5c4	-1.2418752
108	0xbfa27c81	-1.2694246
109	0xbfa403c9	-1.2813655
110	0x3f9d56af	1.2292079
111	0x3f9a59f5	1.2058703
112	0xbf9f2f98	-1.24364
113	0xbfa0bc6f	-1.2557505
114	0xbf9ab49a	-1.2086365
115	0x3fa1e606	1.2648323
116	0x3fa658dd	1.2995869
117	0xbfb2b5b8	-1.3961706
118	0xbf9f74da	-1.2457535
119	0x3fa8e180	1.3193817
120	0x3fa34803	1.2756351
121	0x3faf85f4	1.3712754
122	0x3fb047ec	1.3771949
123	0xbf95ce4d	-1.1703583
124	0xbfb7192a	-1.4304554
125	0x3fb3e342	1.4053729
126	0x3fa7980a	1.3093274
127	0xbf9e2c62	-1.2357295
128	0xbfa629fe	-1.2981565
129	0x3fa8b392	1.31798
130	0xbfaecc59	-1.3656112
131	0x3fa29da0	1.2704353
132	0x3fa1d0d9	1.264186
133	0x3f9f4c30	1.2445126
134	0x3fa23832	1.26734
135	0xbfa9e5d8	-1.3273268
136	0xbfaf73a0	-1.3707161
137	0xbfa36e24	-1.2767987
138	0x3f9f7ac7	1.2459344
139	0xbfa8252c	-1.3136344
140	0xbf9ed224	-1.240788
141	0x3fa2ed7f	1.2728728
142	0x3f9a9071	1.207533
143	0xbfa85250	-1.315012
144	0xbfa8d9eb	-1.3191503
145	0xbfa389e0	-1.2776451
146	0x3fa21ef8	1.2665701
147	0x3fa464f7	1.2843312
148	0x3fa93d54	1.3221841
149	0xbfa3a693	-1.278521
150	0xbfa01d7b	-1.2508997
151	0xbfb40246	-1.4063194
152	0x3fb5b9df	1.4197348
153	0xbfab8d4c	-1.3402495
154	0xbfb8bca1	-1.4432565
155	0xbfba8149	-1.4570705
156	0xbfb2c1a2	-1.3965342
157	0xbfaed948	-1.3660059
158	0xbfa2a7ce	-1.270746
159	0xbfbfe748	-1.4992456
160	0xbfae9a65	-1.3640867
161	0xbfb69a59	-1.4265853
162	0xbfb9a4de	-1.4503438
163	0xbf82916d	-1.020063
164	0xbf9ddfde	-1.2333944
165	0xbfb71c04	-1.4305425
166	0xbfa2e1e9	-1.2725192
167	0xbfa08239	-1.2539741
168	0xbfa6a52e	-1.3019159
169	0xbf9fbd52	-1.2479651
170	0xbfa767dd	-1.3078572
171	0xbfb6249a	-1.422992
172	0xbfb67d64	-1.4257016
173	0xbfb6db7e	-1.4285734
174	0xbfbb3a8c	-1.4627242
175	0xbfb9d5b2	-1.451834
176	0xbfa983aa	-1.3243306
177	0xbfb32c14	-1.3997827
178	0xbfaf1aed	-1.3680092
179	0xbfb44292	-1.4082816
180	0xbf9de908	-1.233674
181	0xbfbc7120	-1.4722023
182	0xbfb4c425	-1.4122359
183	0xbfb9c37c	-1.4512782
184	0xbfbaf718	-1.4606657
185	0xbfb37b00	-1.4021912
186	0xbfb89d59	-1.4423019
187	0xbfbbfbdc	-1.4686236
188	0xbfb51454	-1.4146829
189	0xbfaefc68	-1.3670778
190	0xbfa80a65	-1.3128172
191	0xbfa0873b	-1.2541269
192	0xbfba63cc	-1.4561706
193	0xbf9c63af	-1.2217921
194	0xbfa62823	-1.2980999
195	0xbfac5837	-1.3464421
196	0xbfb0f4e0	-1.382473
197	0xbf9de6dd	-1.2336079
198	0xbfa5641c	-1.2921176
199	0xbfbe67ef	-1.4875468
200	0xbfa47c2d	-1.2850395
201	0xbfbbd2dd	-1.4673725
202	0xbfb6f24f	-1.4292697
203	0xbfa4352c	-1.2828727

linear.weight f4 [1, 51]
0	0x3f9c372a	1.2204335
1	0x3fa59d5d	1.2938648
2	0x3fa1942e	1.2623346
3	0x3f9e9e50	1.2392063
4	0xbf9dc932	-1.2327025
5	0x3fa9bb50	1.3260288
6	0xbfaa6f5c	-1.3315234
7	0xbfa97fc0	-1.3242111
8	0xbf9cdbf1	-1.2254621
9	0xbfa29d89	-1.2704326
10	0xbfac2895	-1.3449885
11	0x3faa8e76	1.3324726
12	0x3fa560e5	1.2920195
13	0xbfa3b9f3	-1.2791122
14	0x3fa08c2b	1.2542776
15	0xbfa106e5	-1.2580229
16	0x3fa712d7	1.3052624
17	0x3f9e4511	1.2364827
18	0x3fa7723c	1.3081737
19	0x3fac7f10	1.3476276
20	0x3fa3c78a	1.279527
21	0x3f9ea58f	1.2394274
22	0xbfa8ded4	-1.3193002
23	0x3fab5a01	1.3386842
24	0xbfaa35ad	-1.329763
25	0x3fa511ee	1.2896097
26	0x3f9d3863	1.2282833
27	0x3fa46064	1.2841916
28	0xbfa086c0	-1.2541122
29	0x3fa0a72b	1.2551016
30	0x3fa4eb17	1.2884244
31	0xbf9c87a0	-1.222889
32	0x3f9f2040	1.2431717
33	0x3fa94e79	1.3227073
34	0xbfa322ea	-1.274503
35	0x3fab0d19	1.3363372
36	0xbfa851e4	-1.3149991
37	0x3fa41cfc	1.2821345
38	0xbfa7597f	-1.3074187
39	0xbfa4e8e3	-1.2883571
40	0xbf9f6ca7	-1.2455033
41	0xbfaebc4e	-1.3651216
42	0xbfadcea9	-1.3578693
43	0xbface1b1	-1.3506376
44	0xbf9da248	-1.2315149
45	0xbfa52cb0	-1.2904263
46	0xbf9e3c81	-1.2362214
47	0xbfad7305	-1.3550726
48	0x3fa89e42	1.3173296
49	0xbfa057e0	-1.2526817
50	0x3fadb8b8	1.3571997
