lab_09/models/cifar10_model_epoch_19.pth (torch_old, 249724 bytes, 10 tensors)

conv1.weight f4 [6, 3, 5, 5]
0	0xbe8bd76d	-0.27312794
1	0xbe4bf7a2	-0.19918683
2	0xbe6c4ab0	-0.23075366
3	0xbe21c866	-0.15799102
4	0xbdb6e679	-0.08930678
5	0xbd9b4502	-0.075815216
6	0xbe935a64	-0.287799
7	0xbe8adb3a	-0.27120382
8	0xbe822767	-0.25420687
9	0xbe1305bf	-0.1435766
10	0xbc597c88	-0.0132743195
11	0x3b859eb0	0.004077755
12	0x3cc27082	0.023735289
13	0xbd7a886a	-0.06116525
14	0xbe58f841	-0.21188451
15	0xbe40ca8b	-0.18827264
16	0xbe3b0be8	-0.1826626
17	0x3cf0ca96	0.029393476
18	0xbd9871f2	-0.07443608
19	0xbd0116c7	-0.031515863
20	0xbc967fd5	-0.018371502
21	0xbde96cda	-0.11397715
22	0xbd31da71	-0.043421213
23	0x3d7223b2	0.059116073
24	0x3e01c3dc	0.1267237
25	0x3d94d878	0.07267851
26	0xba0e9773	-0.0005439438
27	0xbc1de2e8	-0.009636618
28	0x3dc19291	0.094517834
29	0x3d86ef37	0.06588595
30	0x3e15cc48	0.14628708
31	0x3c7f3fc1	0.015579165
32	0x3ca56381	0.020189049
33	0xbe111dcd	-0.14171524
34	0x3d8037f6	0.06260674
35	0x3e275ed7	0.16344772
36	0x3e93bd89	0.2885554
37	0x3e0ebc19	0.13938941
38	0x3e11f9ca	0.14255443
39	0xbe086f74	-0.13323766
40	0xbe215144	-0.15753657
41	0xbe096549	-0.13417543
42	0x3dda396f	0.10655486
43	0x3dd4bf04	0.10387996
44	0xbdb0c283	-0.0863085
45	0xbcdd443f	-0.027010081
46	0xbdee4878	-0.11634916
47	0xbde791c9	-0.11307103
48	0x3dc8c4a8	0.09803134
49	0x3d88a999	0.06672973
50	0x3e42bc55	0.19017155
51	0x3e45e7d3	0.19326715
52	0x3dc20c4c	0.09475002
53	0x3ddfe8b9	0.1093306
54	0x3e441725	0.19149454
55	0x3e462885	0.19351394
56	0x3d929849	0.07157952
57	0xbc5a302c	-0.013317149
58	0xbd7f0b8f	-0.062266883
59	0x3d0e9264	0.034807578
60	0x3e4c7dfb	0.19969933
61	0x3eb853fd	0.36001578
62	0x3e8d1e3c	0.2756213
63	0x3a81d845	0.0009906372
64	0xbd7d6d6a	-0.061871924
65	0xbdcef53e	-0.1010537
66	0x3dfefd0f	0.12450611
67	0x3e028f20	0.1274991
68	0x3d94c06a	0.072632626
69	0xbd12f5ce	-0.03587895
70	0xbdb3cfe2	-0.08779885
71	0xbdc67056	-0.09689395
72	0xbdcdbf87	-0.100462966
73	0x3e125afc	0.1429252
74	0x3da04b08	0.07826811
75	0x3d121c1e	0.035671346
76	0x3e005097	0.12530743
77	0x3e3bd9bf	0.18344782
78	0x3d79b181	0.060960297
79	0xbd8206a9	-0.063489266
80	0x3d9a7ded	0.0754355
81	0x3de4d9a3	0.111743234
82	0xbdba0f6b	-0.09084972
83	0xbdd22816	-0.10261552
84	0x3d7d92c8	0.06190756
85	0x3e480647	0.19533645
86	0xbd2507a1	-0.04029048
87	0xbe7bec74	-0.24601918
88	0xbdf6f505	-0.120584525
89	0x3e6198c9	0.22030939
90	0xbb921b18	-0.0044587962
91	0xbe74c281	-0.23902322
92	0xbe66f3b8	-0.22553909
93	0x3db3e10e	0.0878316
94	0x3e9e1b47	0.30880186
95	0xbe351f70	-0.17687774
96	0xbe2e3acb	-0.17014615
97	0x3db20b76	0.08693592
98	0x3e8ce5a3	0.2751895
99	0x3e3a7525	0.1820875
100	0x3db9e6c0	0.09077215
101	0x3e1e92e4	0.15485722
102	0xbbdbd266	-0.006708431
103	0xbe7924e7	-0.24330483
104	0xbdf32d71	-0.11873902
105	0x3e4a34a8	0.1974665
106	0x3ceb5f3f	0.02873194
107	0xbe689abc	-0.22715276
108	0xbebe5136	-0.37171334
109	0xbe18e551	-0.14931227
110	0x3c7092d5	0.014683445
111	0xbe8daef0	-0.2767253
112	0xbeaef5ba	-0.3417185
113	0xbe7d70de	-0.24750087
114	0x3dee5209	0.11636741
115	0xbc8e5afe	-0.017377373
116	0xbeda5058	-0.42639422
117	0xbeaa0cb0	-0.33212805
118	0x3d392cc0	0.045208693
119	0x3d9ee956	0.07759349
120	0xbeb19d72	-0.34690434
121	0xbe8717ed	-0.2638544
122	0xbcf2a408	-0.029619232
123	0xbd55d982	-0.052209385
124	0xbcca9066	-0.024727058
125	0x3dcdf2d5	0.10056082
126	0x3d09eecc	0.033675
127	0xbca52047	-0.020156993
128	0xbc99e55b	-0.018786123
129	0xbe126db8	-0.14299667
130	0x3e47751a	0.19478264
131	0x3d7ea19b	0.062165838
132	0xbd1a998d	-0.037744094
133	0xbe624154	-0.22095233
134	0x3d85f8cd	0.065415956
135	0x3e3e17cb	0.18563764
136	0xbd3cf1fd	-0.046129216
137	0xbe4201ff	-0.18946074
138	0xbd4d9b8e	-0.050197177
139	0x3e87d3cd	0.2652878
140	0xbdbc81f9	-0.09204478
141	0xbe276d5e	-0.16350314
142	0xbdfc93df	-0.12332892
143	0x3e42355c	0.18965667
144	0x3ebb98d6	0.36640042
145	0xbe0e8ca2	-0.13920835
146	0xbd9aebe6	-0.07564525
147	0x3e80293e	0.25031465
148	0x3eb90175	0.36133924
149	0x3e611673	0.2198122
150	0xbde9e171	-0.11419953
151	0xbd276017	-0.040863123
152	0xbbc7b9d5	-0.006095151
153	0x3c82772b	0.015925964
154	0xbe2ed42a	-0.17073122
155	0xbdb44e8e	-0.088040456
156	0xbe13e2b1	-0.14441945
157	0xbd9e50df	-0.07730269
158	0x3c20b55a	0.009808863
159	0xbd707384	-0.058703914
160	0xbd844a77	-0.064595155
161	0xbdeeacc0	-0.11654043
162	0xbd9e4b49	-0.07729203
163	0xbe156d1b	-0.14592402
164	0xbe60958a	-0.21932045
165	0xbe2c0557	-0.16798912
166	0xbe26ef88	-0.16302311
167	0xbe1ba8f5	-0.1520117
168	0xbd1472a6	-0.03624215
169	0xbddf42ba	-0.10901399
170	0xbdb9df08	-0.09075743
171	0xbe37becb	-0.17943875
172	0x3d0ba576	0.034093343
173	0x3c97f5ff	0.018549917
174	0xbd8b22dd	-0.06793759
175	0x3d1c61e7	0.038179304
176	0xbdf8c4d8	-0.1214692
177	0x3b81f1a1	0.003965572
178	0xbb504b78	-0.0031783264
179	0xbc6260a1	-0.013816983
180	0xbe3b4911	-0.18289591
181	0x3d39ce3d	0.0453627
182	0x3d9ab434	0.07553902
183	0x3e02a3a0	0.1275773
184	0xbd88c1bd	-0.06677578
185	0xbdf1e8ea	-0.11812003
186	0xbd10a398	-0.035312265
187	0x3c052315	0.00812604
188	0x3e1510b7	0.14557157
189	0xbd791812	-0.06081397
190	0xbcae55c5	-0.021281132
191	0xbdb328df	-0.0874803
192	0x3d13af33	0.036055755
193	0xba1198d7	-0.0005554086
194	0xbcc2f9d7	-0.023800774
195	0xbbccaeed	-0.0062464387
196	0xbd250598	-0.040288538
197	0xbcd6d988	-0.026226774
198	0xbd2c3aeb	-0.042048376
199	0xbcb454de	-0.022013124
200	0x3d85433f	0.06506967
201	0x3e59c258	0.21265543
202	0x3e64351f	0.22285889
203	0x3ebe1947	0.3712866
204	0x3e9ed206	0.3101961
205	0x3e1957ce	0.14974901
206	0x3e47d0ea	0.19513288
207	0x3e99346e	0.29922813
208	0x3e497f31	0.19677426
209	0x3e34d763	0.17660289
210	0x3db0e647	0.08637672
211	0x3db78bd1	0.08962215
212	0x3e71ddc5	0.23619755
213	0x3e8d4752	0.27593476
214	0x3d4b8281	0.049685005
215	0xbbc6f2f6	-0.0060714437
216	0x3dbf3c70	0.093376994
217	0x3e6c68fb	0.23086922
218	0x3e2c8ef5	0.16851409
219	0x3dca4dc9	0.098781176
220	0x3cf65a66	0.030072402
221	0x3cb04a22	0.021519724
222	0x3e250b1d	0.1611752
223	0x3e5a8375	0.2133921
224	0xbd59ba15	-0.053155977
225	0x3ea63b88	0.32467294
226	0x3e988b96	0.29793996
227	0x3ef44098	0.4770553
228	0x3e627b35	0.22117312
229	0x3d170a41	0.036875013
230	0x3eb87546	0.36026973
231	0x3e9c064c	0.30473554
232	0x3ed41c2e	0.4142775
233	0x3ef79709	0.48357418
234	0x3e8eee2d	0.2791609
235	0x3d2cfb96	0.04223212
236	0x3dc95419	0.098304935
237	0xbcab90f7	-0.020943148
238	0x3e4e536a	0.20149007
239	0x3d6acfd1	0.057327095
240	0xbebe0f0c	-0.37120855
241	0xbf0b12b3	-0.5432541
242	0xbf07cac5	-0.53043777
243	0xbeea493b	-0.45758995
244	0xbe491386	-0.19636354
245	0xbe0c3834	-0.13693315
246	0xbd327fdd	-0.04357897
247	0xbd0293e5	-0.031879324
248	0xbd653499	-0.055958364
249	0xbe9ffa84	-0.31245816
250	0xbcde71d2	-0.027153883
251	0xbe24cb20	-0.16093111
252	0x3dcb0fd5	0.09915129
253	0x3e009079	0.12555112
254	0xbe2bc313	-0.16773634
255	0x3d724e74	0.05915685

conv1.bias f4 [6]
0	0x3f05fe5f	0.52341264
1	0x3e0bc85e	0.13650653
2	0x3ed07596	0.4071471
3	0xbdfd9a89	-0.12382991
4	0x3f10949a	0.5647675
5	0xbcbfa0a3	-0.023392027

conv2.weight f4 [16, 6, 5, 5]
0	0xbddaab58	-0.106772125
1	0xbe0b0093	-0.13574438
2	0xbdbe5693	-0.092938565
3	0xbda32ba8	-0.07967311
4	0xbde039da	-0.10948534
5	0x3d7ad237	0.061235633
6	0x3d52a303	0.05142499
7	0xbc12d001	-0.008960725
8	0xbd8a5319	-0.06754131
9	0xbdba0bcb	-0.090842806
10	0x3d0e1e7f	0.034697052
11	0x3e21d4cc	0.15803832
12	0x3da04d61	0.07827259
13	0x3d0da6aa	0.03458277
14	0xbe2b5380	-0.16731071
15	0x3d44eecc	0.048079297
16	0xbdb9cbda	-0.09072085
17	0x3e1adde3	0.15123706
18	0x3e400e88	0.18755543
19	0x3cd07614	0.025446929
20	0x3e6af207	0.22943889
21	0xbc0dba52	-0.008650379
22	0xbdfaa82a	-0.12239106
23	0xbd990e11	-0.07473386
24	0x391c226b	0.00014890141
25	0xbd9a1465	-0.07523421
26	0xbd9d020c	-0.07666406
27	0xbd19cb6d	-0.037547518
28	0xbddac568	-0.106821835
29	0xbd45cd64	-0.04829158
30	0x3cf8d0c8	0.030372992
31	0xbdf0f54a	-0.11765535
32	0xbe232e02	-0.1593552
33	0xbc48c0ff	-0.012253045
34	0xbd9eda07	-0.07756429
35	0x3d957dab	0.0729936
36	0x3e00adce	0.12566301
37	0xbd2df0ca	-0.042465962
38	0xbdc6af35	-0.09701387
39	0x3d56ef3b	0.05247424
40	0xbd10d99a	-0.03536377
41	0x3d9129f2	0.070880786
42	0x3e159d9d	0.14610906
43	0x3e1e08ab	0.15432994
44	0x3c34eb55	0.011042436
45	0x3e041ca6	0.12901554
46	0x3a7c3bdf	0.00096219586
47	0xbb985694	-0.004648993
48	0x3d3f12cc	0.046648785
49	0x3daf1dc0	0.08550596
50	0x3c44e924	0.012018476
51	0xbcaa61ce	-0.02079859
52	0x3c0ae57e	0.008477567
53	0xbd1e991a	-0.038720228
54	0x3c798d4b	0.015231441
55	0x3d409e28	0.04702583
56	0x3d983641	0.07432223
57	0x3cd3a8d5	0.025837341
58	0xbd8885d1	-0.066661485
59	0x3d89a425	0.06720761
60	0x3d019b23	0.03164209
61	0x3d526768	0.051368147
62	0x3c768e22	0.015048536
63	0x3dc16f40	0.094450474
64	0xbc96c6d3	-0.018405354
65	0xbe31ccf6	-0.17363343
66	0xbc61771d	-0.013761309
67	0x3dd13237	0.10214656
68	0x3d672a6e	0.05643695
69	0x3d48354f	0.048878964
70	0xbdddaef5	-0.10824386
71	0xbe06bec7	-0.13158713
72	0xbde2a9d0	-0.110675454
73	0x3ce14cc5	0.027502427
74	0x3cc0c655	0.023532072
75	0xbcf6de8c	-0.030135415
76	0xbd21c744	-0.039496675
77	0xbd34f2b9	-0.04417679
78	0x3d0d82e5	0.03454866
79	0xbd75c3b2	-0.060001083
80	0x3ddcdb27	0.107839875
81	0x39957865	0.00028509196
82	0xbd548758	-0.051886886
83	0xbc85d1cd	-0.016335392
84	0xbd529679	-0.051413033
85	0x3e8128d6	0.25226468
86	0x3d66b9bf	0.056329485
87	0xbe3b466e	-0.18288586
88	0xbdcc3785	-0.09971527
89	0xbc0be41c	-0.008538272
90	0x3e19ee37	0.15032278
91	0x3ec9454b	0.3931068
92	0x3e45d172	0.19318178
93	0xbe40ad42	-0.18816093
94	0xbe248bfb	-0.16069023
95	0xbeaa8a22	-0.33308512
96	0x3de512bf	0.11185216
97	0x3eb2be66	0.34910887
98	0x3ec4b5d6	0.3841998
99	0x3dc57649	0.09641702
100	0x3c9ad487	0.018900169
101	0xbbfd3bf6	-0.007728095
102	0x3d2c5169	0.042069826
103	0xbdba9e42	-0.091122165
104	0x3d43b80c	0.047782943
105	0xbe32eb60	-0.17472601
106	0xbadffcd9	-0.0017088904
107	0xbdb34207	-0.08752828
108	0xbc10b1d5	-0.008831461
109	0x3db2774f	0.087141626
110	0xbe52a602	-0.2057114
111	0xbc1a4564	-0.009415958
112	0xbd7aa710	-0.06119448
113	0x3d17656c	0.036961958
114	0x3cc4e720	0.02403599
115	0xbe174df3	-0.14775829
116	0xbe707867	-0.2348343
117	0xbd202c80	-0.03910494
118	0x3c988f6a	0.018623073
119	0xbd609ddb	-0.054838043
120	0x3d6c3b43	0.057673704
121	0xbd59a115	-0.053132135
122	0xbe831862	-0.2560454
123	0xbd960ea6	-0.07327013
124	0x3deb5ec2	0.11492683
125	0xbd75ddc2	-0.060025938
126	0xbc978cc7	-0.018499745
127	0xbd010626	-0.031500004
128	0xbcce1662	-0.025157157
129	0x3d81832c	0.06323847
130	0xbdac5f65	-0.084166326
131	0x3db7ba33	0.089710616
132	0x3cec991f	0.028881608
133	0x3daeda2a	0.08537705
134	0x3a150b99	0.0005685627
135	0x3d07ba01	0.03313637
136	0xbdffb7cd	-0.12486229
137	0x3dd68df1	0.10476292
138	0x3e408e77	0.18804346
139	0x3cf26e1c	0.02959352
140	0x3eb27971	0.34858277
141	0x3e2c159d	0.1680512
142	0xbe74177c	-0.23837084
143	0xbc9427f7	-0.018085463
144	0x3d0639a4	0.032769814
145	0xbcfdabd6	-0.030965727
146	0x3e1e5ee6	0.15465888
147	0xbd055dd9	-0.032560203
148	0xbe05f215	-0.13080628
149	0xbe4b7347	-0.19868194
150	0xbdec1b28	-0.11528617
151	0xbd6d499c	-0.057931527
152	0x3cf45fc8	0.029830828
153	0xbd53881e	-0.051643483
154	0x3d4200a2	0.047363885
155	0xbdcf46c4	-0.10120919
156	0xbce6c16e	-0.028168406
157	0x3c593bf1	0.01325892
158	0xbcb209dc	-0.021733217
159	0xbcb77966	-0.022396754
160	0xbd6bc1c3	-0.057557832
161	0xbc3e8e4b	-0.011630605
162	0x3d4f0d4f	0.0505498
163	0x3c1b9e1b	0.0094981445
164	0x3beb5507	0.007181767
165	0xbe004b74	-0.12528783
166	0xbd9c16f7	-0.07621568
167	0xbd2b6d8d	-0.041852523
168	0xbdcc4e63	-0.099758886
169	0xbd47ad20	-0.04874909
170	0xbe3a1170	-0.18170714
171	0xbd01060e	-0.031499915
172	0xbd4cb2f1	-0.04997534
173	0xbd91c45f	-0.07117533
174	0xbd47e1e9	-0.04879943
175	0x3e84b886	0.2592203
176	0xbb9380fe	-0.004501461
177	0x3e75ce45	0.24004467
178	0x3e1a1ad4	0.15049297
179	0x3dbe7d86	0.093012854
180	0xbd0cc43b	-0.034366827
181	0xbd8bb675	-0.0682191
182	0x3df9e65a	0.12202139
183	0xbcb25a97	-0.021771712
184	0xba8e86c7	-0.0010873907
185	0xbe4c07aa	-0.19924799
186	0x3dc413a4	0.09574059
187	0x3e1125e9	0.14174618
188	0xbdef9851	-0.11698974
189	0x3b266868	0.002539182
190	0xbdc53ca8	-0.0963071
191	0x3e913cd3	0.28366718
192	0xbc2c70f3	-0.010524976
193	0x3d7e5f94	0.06210287
194	0x3bb84db1	0.005624496
195	0xbd419466	-0.047260664
196	0x3e123052	0.14276245
197	0xbdbe7411	-0.09299482
198	0x3cd3abb3	0.025838709
199	0x3ad5c8b7	0.0016310428
200	0xbdc55ec1	-0.096372135
201	0x3d56cdcf	0.052442368
202	0xbd96c532	-0.07361831
203	0xbcc08578	-0.023501143
204	0xbc92a7f8	-0.01790236
205	0x3e11699d	0.14200445
206	0x3d85bc65	0.06530074
207	0x3d5de246	0.05417087
208	0x3dfb74b0	0.12278116
209	0x3d596d04	0.05308248
210	0x3e465161	0.19366981
211	0x3e2485a7	0.1606661
212	0x3e024fdf	0.12725781
213	0x3ce30210	0.027710944
214	0x3daa7639	0.083233304
215	0x3ded6d3b	0.115931
216	0x3d9df6cd	0.07713089
217	0xbca1a389	-0.0197313
218	0x3cc4caca	0.024022479
219	0x3cb22a0c	0.021748565
220	0xbd29e1cc	-0.041475102
221	0xbcaa2a6c	-0.020772181
222	0x3ce3cced	0.027807677
223	0xbda7987a	-0.081833795
224	0xbdbb3ee2	-0.09142853
225	0x3c824d68	0.01590605
226	0xbb123f82	-0.0022315686
227	0x3d3b94db	0.045796257
228	0x3d929481	0.07157231
229	0x3df85ced	0.12127099
230	0xbdacd6c7	-0.08439403
231	0x3d501209	0.05079845
232	0x3d1e9271	0.038713876
233	0x3d854cad	0.06508765
234	0xbcb8d3c6	-0.022561919
235	0x3bd4d75f	0.006495401
236	0x3c3fd1e6	0.0117077585
237	0x3d940fd3	0.07229581
238	0xbdecc5c7	-0.115611605
239	0x3d8dc038	0.069214284
240	0xbbd12e53	-0.006383696
241	0xbbd5db6b	-0.006526401
242	0xbda49fb2	-0.08038272
243	0xbdfd9f3b	-0.123838864
244	0x3d0c86b9	0.03430817
245	0x3c0fdf67	0.008781291
246	0xbd6ec38c	-0.058291957
247	0xbd8feddc	-0.0702779
248	0xbd9d8319	-0.076910205
249	0x3bf49cae	0.0074649667
250	0xbcd51ac4	-0.02601374
251	0x3d3db111	0.04631144
252	0x3cfc417c	0.030792944
253	0x3c26e8a7	0.010187305
254	0xbcf0f59f	-0.029413996
255	0xbcde3fe6	-0.027130079

conv2.bias f4 [16]
0	0xbe038f7e	-0.12847707
1	0xbedca277	-0.430927
2	0xbdb0155f	-0.08597826
3	0x3e0b77bd	0.13619895
4	0xbe1d3ecc	-0.15355986
5	0xbe009afd	-0.12559123
6	0x3c50594f	0.012716605
7	0xbe0799e5	-0.132423
8	0x3d545ee6	0.051848315
9	0x3d7bb07b	0.0614476
10	0xbf339c81	-0.7016068
11	0x3f5c0423	0.8594381
12	0xbd4a0ca0	-0.049328446
13	0x3da8e21e	0.082462534
14	0xbe99005f	-0.29883096
15	0x3dab2b65	0.08357886

linear1.weight f4 [120, 400]
0	0xbd2d2a20	-0.0422765
1	0x3c69826f	0.014252289
2	0x3d0a7ac6	0.033808492
3	0xbc855b6e	-0.016278949
4	0xbd364340	-0.04449773
5	0xbd8e8ea7	-0.069608025
6	0xbd374a66	-0.044748686
7	0x3d03d14c	0.032182023
8	0x3bcb1eab	0.0061987243
9	0x3d08012b	0.03320424
10	0xbd84c49a	-0.06482811
11	0xbd980b55	-0.074240364
12	0xbd19ce0d	-0.03755002
13	0x3d6ab191	0.057298247
14	0x3d80b069	0.062836476
15	0x3d61f32a	0.05516354
16	0x3d8e2c2e	0.0694202
17	0xbcdbe8c3	-0.026844388
18	0xbc58ab7b	-0.013224478
19	0x3cf93cbd	0.03042447
20	0xbcda7bf4	-0.026670434
21	0xbcea0698	-0.028567597
22	0x3d9fa6ad	0.07795463
23	0x3d3e24e2	0.046421893
24	0x3d236d43	0.039899122
25	0xbd2bbfb3	-0.041930865
26	0xbca2c666	-0.019869994
27	0x3d1c1f5c	0.038115844
28	0x3cb69edf	0.022292553
29	0x3c40e458	0.011773191
30	0x3bdf1001	0.0068073277
31	0xbbfc08d1	-0.0076914807
32	0x3d2ac7f7	0.041694608
33	0xbd470992	-0.04859311
34	0xbc973a13	-0.01846031
35	0xbc674b2c	-0.014117043
36	0xbb98a90f	-0.004658825
37	0xbd5e9a1b	-0.054346185
38	0xbc9d0826	-0.019168925
39	0x3be1336f	0.0068725864
40	0x3c0c0483	0.008545998
41	0x3cd68ebe	0.026191112
42	0xbca395bd	-0.019968862
43	0x3c95b3d6	0.018274229
44	0x3b92dea1	0.004482106
45	0xbd020f63	-0.031752955
46	0xbd824808	-0.06361395
47	0xbd8c590a	-0.0685292
48	0x3d770e20	0.060316205
49	0xbd40fa88	-0.047113925
50	0x3d527d43	0.05138899
51	0x3cbcf07d	0.023063892
52	0xbcba7029	-0.02275856
53	0xbd42b39e	-0.047534578
54	0xbb14fad2	-0.0022732508
55	0xbd0761a3	-0.033052098
56	0xbd7cc41b	-0.06171046
57	0x3b9df37c	0.0048202854
58	0x3d2abe4c	0.041685387
59	0x3d71b020	0.059005857
60	0x3cd68f49	0.02619137
61	0xbd073012	-0.033004828
62	0xbb64611b	-0.0034847918
63	0xbbb1c761	-0.005425379
64	0x3ca9307c	0.020653002
65	0xbcbbd659	-0.022929357
66	0xbc7c33c2	-0.015393199
67	0xbbe7f3af	-0.00707861
68	0xbc5c6626	-0.013452088
69	0xbc4320e5	-0.011909698
70	0x3c368f36	0.011142543
71	0xbd04566f	-0.032308992
72	0x3cf7fcd5	0.030271927
73	0xbd108ac2	-0.03528858
74	0xbdb11a7e	-0.08647631
75	0x3c542737	0.012948803
76	0x3d52e322	0.051486142
77	0x3b2523d4	0.0025198357
78	0x3ac6d7e4	0.0015170542
79	0x3d3ca13b	0.0460522
80	0x3c5675dc	0.013089623
81	0xbd2bc420	-0.041935086
82	0xbd8abd7d	-0.06774423
83	0xbc78bdd4	-0.015181977
84	0xbd3b0bb6	-0.045665465
85	0xbc6a1ea3	-0.014289531
86	0x3d42c145	0.047547597
87	0x3ca7b9a3	0.02047426
88	0x3d685c44	0.056728616
89	0x3d36a013	0.044586252
90	0x3c4e079a	0.012575055
91	0x3d481e5d	0.04885708
92	0xbd680f8a	-0.056655444
93	0x3cdd597e	0.027020212
94	0x3c506910	0.012720361
95	0x3d855ed5	0.065122284
96	0x3d50141a	0.05080042
97	0xbd92546f	-0.07145011
98	0xbd25c666	-0.04047241
99	0xbb730d64	-0.003708684
100	0xbd8d6f36	-0.069059774
101	0x3c168667	0.009187317
102	0x3cdc1f7a	0.026870478
103	0x3caf6c8b	0.021414062
104	0xbcb62689	-0.022235172
105	0xbda975a1	-0.08274389
106	0xbcb15555	-0.021647135
107	0xbd8e723d	-0.06955383
108	0xbd4a9203	-0.049455654
109	0x3cc4abb2	0.024007652
110	0xbd153298	-0.036425203
111	0xbde2bf8a	-0.110716894
112	0xbdca0cdd	-0.09865735
113	0x3ce0568a	0.027385015
114	0x3d382454	0.04495652
115	0xbc071c4f	-0.008246495
116	0xbc638994	-0.013887782
117	0x3c876e1e	0.016532
118	0x3d0b78b6	0.034050666
119	0x3d50b668	0.050955206
120	0xbc84f2f8	-0.016229138
121	0xbc64fe0a	-0.013976583
122	0xbd6441d8	-0.055726856
123	0xbbce3b0b	-0.0062936596
124	0x3dd6b3f5	0.10483543
125	0x3ce184c6	0.027529132
126	0x3c69094a	0.014223406
127	0xbd54c564	-0.05194606
128	0xbd88d4e2	-0.06681229
129	0xbc21f555	-0.009885152
130	0x3d0a6cba	0.033795096
131	0x3ba07cb5	0.0048976787
132	0x3bc0a6d9	0.005879265
133	0x3d29b06d	0.04142802
134	0x3c79074b	0.015199493
135	0x3d116818	0.035499662
136	0x3d323b2b	0.04351346
137	0x3c8887b2	0.016666267
138	0x3c865626	0.0163985
139	0xbd926692	-0.0714847
140	0xbd8004cd	-0.06250916
141	0x3af83b8c	0.0018938645
142	0x3d841554	0.064493805
143	0x3c1dd44c	0.009633135
144	0xbd4d80e2	-0.05017174
145	0xbcd1c985	-0.025608787
146	0x3d067002	0.032821663
147	0xbb6608cb	-0.0035100456
148	0x3cf9dfa3	0.030502146
149	0xbda801a6	-0.082034394
150	0xbc1dc929	-0.00963048
151	0x3d252ee6	0.04032793
152	0x3d94f873	0.072739504
153	0x3d949989	0.07255847
154	0xbc984eb9	-0.018592225
155	0x3d8df06b	0.06930622
156	0x3d937743	0.07200482
157	0xbcc585c0	-0.024111629
158	0xbc000510	-0.007813707
159	0x3c2e0ebc	0.01062363
160	0x3d9e02d2	0.07715382
161	0x3d2082a1	0.039187077
162	0xbc34bdf2	-0.011031615
163	0xbdc00b06	-0.093771026
164	0x3da643fb	0.08118435
165	0x3d5cc667	0.05390015
166	0x3d2eabbe	0.042644255
167	0xbd3a977e	-0.04555463
168	0xbd83ab64	-0.064291745
169	0x3d278713	0.0409003
170	0x3d764bb3	0.060130786
171	0xbd787dc1	-0.060666803
172	0xbdc07455	-0.093971886
173	0xbd297ef5	-0.04138084
174	0x3dfe0b1b	0.12404462
175	0x3d4b04c1	0.04956508
176	0xbd134db2	-0.035962768
177	0xbba1f462	-0.004942463
178	0xbd724389	-0.059146438
179	0xbd501823	-0.05080427
180	0xbd0c8b33	-0.03431244
181	0x3d272ab9	0.040812228
182	0x3b01a49d	0.0019781955
183	0xbcfa62c7	-0.030564679
184	0xbc0f9344	-0.008763138
185	0xbb8e0074	-0.00433355
186	0xbbded0f7	-0.006799813
187	0x3bc4dab5	0.006007517
188	0x3b92f076	0.0044842316
189	0x3d46f4ce	0.048573308
190	0xbc87268f	-0.016497878
191	0x3d83d7e4	0.06437662
192	0xbd2b3b2a	-0.04180447
193	0xbd9482d2	-0.072515145
194	0xba34b635	-0.0006893606
195	0xbc5f840f	-0.013642325
196	0xbd5e3430	-0.05424899
197	0xbd1e1c31	-0.038601104
198	0x3c3b2eff	0.011424779
199	0x3d03119d	0.03199922
200	0xba6aa34d	-0.00089507253
201	0xbd263a64	-0.04058303
202	0xbd0c58c2	-0.034264334
203	0xbd874681	-0.066052444
204	0xbbdbf801	-0.006712914
205	0x3cbcb4e5	0.023035476
206	0x3d95465f	0.07288813
207	0x3d0ce34f	0.034396466
208	0xbc2d1944	-0.010565106
209	0x3ca6d8eb	0.020367106
210	0xbdc289cd	-0.0949894
211	0x3d8a77c9	0.067611285
212	0x3d46140c	0.048358962
213	0x3c99f966	0.01879568
214	0xb9d11860	-0.00039881747
215	0x3c9155eb	0.017741164
216	0xbb260b93	-0.0025336489
217	0xbabd9da7	-0.001446654
218	0xbc29708f	-0.0103417775
219	0x3c212dc1	0.009837569
220	0x3cb2fd10	0.021849185
221	0xbb266bb0	-0.0025393777
222	0x3dbafb54	0.09129968
223	0x3d98a3fc	0.074531525
224	0x3d46cb7e	0.04853391
225	0xbd18f6f5	-0.03734489
226	0xbc5e5ad3	-0.013571459
227	0xbd384abb	-0.044993144
228	0xbd4f266d	-0.050573755
229	0xbc387bd6	-0.011259994
230	0xbd594f0f	-0.05305391
231	0x3c690fca	0.014224956
232	0x3c3d404c	0.011550974
233	0xbda4276a	-0.0801533
234	0xbd163850	-0.036674798
235	0xbc7ec1a2	-0.015549095
236	0x3d388a78	0.04505393
237	0x3dbd0b69	0.09230692
238	0x3c3f75bf	0.011685788
239	0x3c2a3339	0.010388189
240	0x3ca09f21	0.019607129
241	0x3a9b87a2	0.0011865983
242	0xbd8c20e2	-0.068422094
243	0xbd416832	-0.04721851
244	0x3a258205	0.0006313625
245	0x3ceadae6	0.028668832
246	0x3b476a7d	0.0030428462
247	0x3d5cca3a	0.053903796
248	0x3d8bde12	0.06829466
249	0x3cea79c8	0.028622523
250	0xbc613d54	-0.013747532
251	0xbca84152	-0.02053896
252	0xbd87accf	-0.066247575
253	0xbb96fde1	-0.0046079014
254	0xbd4f8f47	-0.05067375
255	0xbdcc8e16	-0.09988038

linear1.bias f4 [120]
0	0x3e04eab3	0.12980156
1	0x3e2b2114	0.16711837
2	0x3d7673f6	0.060169183
3	0x3cada63d	0.021197433
4	0x3cb89689	0.022532718
5	0x3c8812ed	0.016610587
6	0x3d9ef7ec	0.07762131
7	0x3c44f87e	0.012022136
8	0x3cbd8a92	0.023137365
9	0xbd7b531f	-0.061358567
10	0x3d0d986c	0.03456919
11	0x3cbe7dbe	0.023253318
12	0x3c86622b	0.016404232
13	0xba82349c	-0.0009933892
14	0xbdc71b29	-0.09721977
15	0xbce9dd61	-0.028547945
16	0x3e249a08	0.16074383
17	0x3cc4d2cd	0.024026299
18	0xbd8c44c3	-0.06849053
19	0xbd8309de	-0.063983664
20	0x3da43d20	0.08019471
21	0x3b1965e3	0.0023406676
22	0x3d8053d7	0.06265991
23	0x3cea1f03	0.02857924
24	0xbc64f067	-0.013973332
25	0x3ac362f1	0.0014906806
26	0xbdc5fa65	-0.096668996
27	0x3cd60f3d	0.026130313
28	0xbca3da71	-0.020001622
29	0x3d1c4a94	0.03815706
30	0xbce235d8	-0.027613565
31	0xbca64909	-0.020298498
32	0xbc3f8fd4	-0.011692006
33	0xbbce451b	-0.006294859
34	0x3b8a023b	0.0042116917
35	0xbd2bce50	-0.0419448
36	0x3e3c36a4	0.18380219
37	0xba9d4e87	-0.0012001552
38	0xbbd6761c	-0.0065448415
39	0x3d860f85	0.06545929
40	0x3de81878	0.11332792
41	0x3dc2393f	0.09483575
42	0xbd6a7de0	-0.05724895
43	0x3e156804	0.1459046
44	0xbd03ba49	-0.032160077
45	0x3d5045c9	0.050847802
46	0x3e0219ee	0.12705204
47	0xbd896d11	-0.06710256
48	0x3dd803a5	0.1054757
49	0x3dda0eed	0.10647378
50	0x3cbd98c0	0.023144126
51	0x3d1cd51b	0.03828917
52	0x3d9411a9	0.07229931
53	0xbe184984	-0.14871794
54	0xbbb799c8	-0.005603049
55	0x3dba75d0	0.09104502
56	0x3cb8a80b	0.022541067
57	0xbdb17a85	-0.08665947
58	0x3d6be19a	0.057588197
59	0x3cd54d3f	0.02603781
60	0xbd329ff7	-0.043609586
61	0x3dee0c1e	0.11623405
62	0xbd964f84	-0.07339385
63	0x3b88a779	0.004170355
64	0x3db53b44	0.08849195
65	0x3d53e262	0.051729567
66	0xbd107b51	-0.035273854
67	0x3d0a50cc	0.03376846
68	0x3cd52ca1	0.026022257
69	0xbc458895	-0.0120564895
70	0xbde597cd	-0.11210594
71	0x3df706a1	0.12061811
72	0x3e27eecc	0.16399688
73	0x3d235c15	0.03988274
74	0x3dea0f04	0.11428645
75	0xbd233973	-0.03984971
76	0x3ca921af	0.020645944
77	0xbd793bd6	-0.06084808
78	0xbd945903	-0.0724354
79	0xbe0dccab	-0.13847606
80	0xbc145fad	-0.009056014
81	0xbe2afcb4	-0.16697961
82	0x3d078f57	0.033095684
83	0xbbc0ab74	-0.005879814
84	0x3d39134a	0.04518441
85	0x3deb00d7	0.114747696
86	0x3e0acb6c	0.13554162
87	0x3ddccfb1	0.107818015
88	0xb9bad8dc	-0.00035638257
89	0xbe0057d1	-0.125335
90	0x3d0308b6	0.03199073
91	0x3dfeb09e	0.12436031
92	0x3c7df667	0.015500641
93	0xbc75c335	-0.015000154
94	0xbd42f9e9	-0.047601614
95	0x3d0db442	0.034595735
96	0xbe2a4a2b	-0.16629855
97	0x3c0aed55	0.008479436
98	0x3c008d33	0.0078461645
99	0x3c479f06	0.01218391
100	0x3b48f4c0	0.003066346
101	0x3d489721	0.048972253
102	0x3d65e416	0.056125723
103	0x3ddccad2	0.107808724
104	0xbd04d342	-0.032428034
105	0xbc6c86c0	-0.014436424
106	0xbd11e358	-0.035617203
107	0xbd9eaf2e	-0.077482566
108	0xbcab1b1e	-0.020886954
109	0x3c36b4af	0.011151477
110	0xbd563735	-0.052298743
111	0x3c8aaa20	0.016926825
112	0x3c855cae	0.016279545
113	0x3e1580f0	0.14599967
114	0x3e02575e	0.1272864
115	0x3df73e02	0.12072374
116	0xbdf74ebe	-0.12075566
117	0xbb904149	-0.004402314
118	0xbd3705bc	-0.044683203
119	0x3d23320b	0.039842647

linear2.weight f4 [84, 120]
0	0xbb425d28	-0.0029657576
1	0x3dec437f	0.11536311
2	0xbc008d42	-0.0078461785
3	0x3dc98090	0.098389745
4	0x3bfdbae5	0.007743227
5	0x3dbe412a	0.09289773
6	0x3d61d020	0.055130124
7	0x3d5f512e	0.05452078
8	0x3b09623f	0.00209631
9	0xbdddcbf7	-0.10829919
10	0x3cb84308	0.0224929
11	0xbb2a4cf1	-0.0025985802
12	0x3d27ba89	0.04094938
13	0xbd004a3d	-0.0313208
14	0xbdc0611a	-0.09393521
15	0x3d247671	0.040152017
16	0x3df3e024	0.11907986
17	0x3cdcdc20	0.026960433
18	0xbd094d7d	-0.033521164
19	0xbd3ab190	-0.045579493
20	0x3d33f23a	0.043932177
21	0x3b4c6178	0.0031186026
22	0xbdfec669	-0.124401875
23	0xbd2a480c	-0.041572616
24	0xbd128acd	-0.035776902
25	0xbd895f17	-0.0670759
26	0x3ae788bf	0.0017664655
27	0xbd12501f	-0.03572094
28	0xbd03d892	-0.03218896
29	0x3d942f9a	0.07235642
30	0x3b8eddc1	0.004359931
31	0x3c81d3e4	0.015848108
32	0x3cba2695	0.022723475
33	0xbd9bb103	-0.07602122
34	0xbd9a7a7e	-0.07542895
35	0x3e09fc95	0.13475259
36	0x3d1aee9d	0.037825216
37	0xbdf90138	-0.121584356
38	0x3d7d9212	0.06190688
39	0x3d06c6ab	0.03290431
40	0x3d0a1bcf	0.033717927
41	0xbd3a704a	-0.045517243
42	0xbce0306e	-0.027366843
43	0x3e2dc0c1	0.16968061
44	0xbd89dd5d	-0.06731675
45	0xbc9eca71	-0.019383641
46	0x3e3bfb5e	0.18357608
47	0xbd00fcfd	-0.03149127
48	0xbced764e	-0.028987076
49	0x3c2c61c2	0.010521354
50	0xbdbe7eb9	-0.09301514
51	0x3df6d563	0.12052419
52	0x3d8a151e	0.06742309
53	0x3cf2770c	0.029597782
54	0x3d96d18a	0.07364185
55	0xbdb1bc0b	-0.086784445
56	0x3db9920e	0.09061061
57	0x3dfdc25a	0.12390585
58	0x3e05df79	0.1307353
59	0x3d6a8ad5	0.057261307
60	0xbd2b935a	-0.041888572
61	0x3df17263	0.11789396
62	0x3cf90e9f	0.03040248
63	0xbe029ca6	-0.12755069
64	0x3c33c5ae	0.0109724235
65	0x3d2916ad	0.04128139
66	0xbd9178fa	-0.071031526
67	0x3d94c91a	0.072649196
68	0xbddc7269	-0.107640095
69	0x3d72d79f	0.059287664
70	0x3c6b6473	0.014367211
71	0x3beb6b7e	0.007184445
72	0xbcca30c8	-0.024681464
73	0x3dd8fa78	0.10594648
74	0xbcaba79f	-0.020953951
75	0x3c595391	0.013264553
76	0x3d00c039	0.031433318
77	0xbdc3ebba	-0.09566446
78	0xbd8d9856	-0.069138214
79	0xbd586c38	-0.05283758
80	0x3d4d0cb6	0.05006095
81	0xbdefe9d6	-0.117145225
82	0x3c163d50	0.0091698915
83	0x3c037dd3	0.008025604
84	0x3dbd574d	0.09245167
85	0xbc2b5180	-0.010456443
86	0x3e2710c7	0.16314994
87	0x3b60b9db	0.0034290466
88	0x3e22f951	0.15915419
89	0xbd9dc6f5	-0.07703964
90	0x3c627403	0.013821605
91	0x3bda19c2	0.0066559026
92	0xbdca3d61	-0.09874988
93	0xbd9ce975	-0.07661716
94	0x3d9d0cca	0.07668455
95	0x3d3034bd	0.043019045
96	0xbd88f440	-0.06687212
97	0x3d3ce091	0.0461126
98	0xbd32b704	-0.04363157
99	0xbdb42335	-0.08795778
100	0x3dc45a5f	0.095875494
101	0xbd6f64f4	-0.058445886
102	0xbb88c047	-0.004173312
103	0xbd8be4c8	-0.06830746
104	0xbde2999a	-0.110644534
105	0x3d04bb40	0.032405138
106	0xbd08db2b	-0.03341214
107	0x3e0aa0fb	0.13537972
108	0xbdaa1c94	-0.08306232
109	0x3da65ad4	0.08122793
110	0xbd36ce2d	-0.04463022
111	0x3dee2f74	0.11630145
112	0xbdaaee52	-0.08346237
113	0x3cd213c0	0.025644183
114	0x3d6c35bf	0.057668444
115	0x3e015cbf	0.12633036
116	0x3b9b6bb4	0.004743064
117	0xbc4a2246	-0.012337273
118	0xbdb1cf14	-0.08682075
119	0x3d0a9421	0.033832673
120	0x3d50ffa1	0.051025037
121	0xbd82a895	-0.06379811
122	0x3dfbda11	0.12297452
123	0x3aeccbc5	0.0018066099
124	0xbde19b77	-0.11015981
125	0xbcd81074	-0.026375033
126	0x3dfdc88a	0.123917654
127	0x3d0d7a55	0.034540493
128	0x3db16aa6	0.0866292
129	0x3d9aface	0.075673684
130	0xbd22ff62	-0.039794333
131	0x3bdd001a	0.006744397
132	0x3dfb6b22	0.12276293
133	0x3d2a7c92	0.041622706
134	0xbdc751d6	-0.09732406
135	0xbb1b5f53	-0.002370794
136	0xbc84dbf6	-0.016218167
137	0x3d235a67	0.039881136
138	0x3c738df2	0.014865385
139	0xbd58f15d	-0.052964557
140	0x3cce01d3	0.025147354
141	0x3c6d1653	0.014470655
142	0xbd0136c4	-0.03154637
143	0xbc80a455	-0.01570336
144	0xbd00fba1	-0.031489972
145	0xbd7948e9	-0.06086055
146	0x3da74f0f	0.08169376
147	0x3d89dd27	0.067316346
148	0x3ba2affc	0.0049648266
149	0xbd64deb9	-0.055876467
150	0xbbf0ec12	-0.0073523605
151	0xbd191976	-0.037377797
152	0xbd51eeb3	-0.051253032
153	0x3cc834a7	0.02443917
154	0x3e188036	0.14892659
155	0x3e01d6ab	0.12679546
156	0x3de98b1c	0.11403486
157	0x3d73a6c6	0.05948522
158	0xbd35399f	-0.044244405
159	0x3e14f7e0	0.14547682
160	0x3bee83f0	0.007278912
161	0xbd81cd74	-0.06338015
162	0xbc92aafd	-0.0179038
163	0xbd8b98ea	-0.068162754
164	0xbd83972b	-0.064253174
165	0xbe0fd261	-0.14045097
166	0xbd59c122	-0.0531627
167	0x3ce2dc43	0.02769292
168	0xbd56d9d3	-0.052453827
169	0x3cdea8f9	0.027180182
170	0x3dfd2a44	0.12361577
171	0x3d8ace9c	0.06777689
172	0xbc22b6ac	-0.009931248
173	0x3ddcca20	0.1078074
174	0x3db40735	0.08790437
175	0x3c12585d	0.0089322
176	0x3d23b2e5	0.03996553
177	0xbc4cadbd	-0.012492594
178	0x3d108682	0.035284527
179	0x3d28d0cd	0.041214753
180	0x3d9d3c30	0.076774955
181	0x3da20c35	0.079124846
182	0x3c8cd109	0.01718952
183	0xbde86696	-0.11347692
184	0xbd944b82	-0.072409645
185	0x3e170fc1	0.14752103
186	0x3d3247ac	0.043525383
187	0xbc3f4b10	-0.011675611
188	0xbd66dc6e	-0.056362562
189	0xbd1e77b8	-0.03868839
190	0x3dd3473c	0.10316321
191	0xbc2ddbe4	-0.010611508
192	0x3da01cde	0.07818006
193	0xbc4bb155	-0.012432416
194	0x3cbb95b3	0.02289853
195	0xbd979ef5	-0.074033655
196	0x3dfefa49	0.12450082
197	0xbd30295c	-0.043008193
198	0xbdbea725	-0.09309224
199	0x3d7ebb35	0.062190253
200	0xbc748016	-0.014923116
201	0x3d84a98d	0.06477652
202	0x3e398b6c	0.18119591
203	0xbd0fc3cc	-0.035098836
204	0x3debc615	0.115123905
205	0x3d9e830e	0.077398404
206	0x3d1fcf90	0.039016306
207	0xbde6f5e1	-0.112773664
208	0x3c79b87f	0.015241741
209	0xbbb23782	-0.005438746
210	0xbe19b6b8	-0.15011108
211	0xbdceecf7	-0.10103791
212	0x3d11508f	0.035477217
213	0x3dad70dc	0.08468792
214	0x3e1406d4	0.1445573
215	0x3daa8b6a	0.08327372
216	0x3ca48372	0.02008221
217	0x3d77446d	0.06036799
218	0xbd3e2707	-0.046423938
219	0x3d2304a4	0.039799348
220	0x3da39eab	0.07989248
221	0x3bb8d15f	0.0056401934
222	0xbd1fdc2c	-0.03902833
223	0x3d9cfefe	0.076658234
224	0x3d0338a2	0.03203643
225	0x3e2d01a8	0.16895163
226	0x3cea14b8	0.028574333
227	0xbd82a18d	-0.063784696
228	0x3c4bff1c	0.0124509595
229	0x3d9d87bb	0.07691904
230	0xbbf20324	-0.0073856283
231	0x3e0698dc	0.13144249
232	0x3c919663	0.017771905
233	0xbd9b1309	-0.0757199
234	0xbbe7dd6a	-0.007075955
235	0x3e26b12a	0.1627852
236	0xbcfe5010	-0.031044036
237	0xbde9b91b	-0.11412259
238	0x3c65f7e3	0.014036152
239	0x3e0a53ae	0.13508484
240	0x3ba0de05	0.0049092793
241	0x3e50ba82	0.20383647
242	0xbd7d562e	-0.061849765
243	0x3d0f9387	0.035052802
244	0x3c9bc28e	0.01901367
245	0x3d3b3048	0.04570034
246	0xbc15017a	-0.00909459
247	0x3d193f2f	0.037413772
248	0x3b45038c	0.0030061929
249	0x3c607a13	0.01370098
250	0x3d2ebf22	0.042662747
251	0x3b04d3db	0.0020267877
252	0x3d8a2b75	0.0674657
253	0x3d87c225	0.06628827
254	0xbd69497a	-0.05695484
255	0xbb6b8a2b	-0.0035940509

linear2.bias f4 [84]
0	0x3e915832	0.283876
1	0x3d57a98d	0.05265193
2	0x3e3e1bee	0.18565342
3	0xbd9bb505	-0.07602886
4	0x3e150869	0.1455399
5	0xbd921c9a	-0.071343616
6	0x3da6bf92	0.08142008
7	0x3cc6ef96	0.024284165
8	0xbc33c28c	-0.010971677
9	0xbdb43ac6	-0.08800273
10	0xbcf46cf6	-0.029837113
11	0xbdd30226	-0.10303144
12	0xbd34f1aa	-0.04417578
13	0x3d7e152e	0.062031917
14	0xbd7774ff	-0.06041431
15	0x3d1b50c3	0.037918817
16	0x3e4a2b48	0.19743073
17	0x3abbf9bf	0.0014341398
18	0x3dc95204	0.09830096
19	0xbd459bc8	-0.048244268
20	0xbc556ac7	-0.013025946
21	0xbd87f6dd	-0.06638882
22	0xbca05e5a	-0.01957624
23	0xbc35e680	-0.011102319
24	0xbd9ee675	-0.077588
25	0xbd8868dc	-0.06660625
26	0x3e317dfb	0.17333214
27	0x3d479303	0.048724186
28	0x3d2e1ba9	0.042506848
29	0x3c38eee6	0.011287427
30	0x3e966292	0.29372078
31	0x3e1e9101	0.15485002
32	0xbd98791f	-0.07444977
33	0x3d2eb900	0.0426569
34	0x3ddb3984	0.107043296
35	0xbd70ee20	-0.058820844
36	0x3d4ba323	0.049716126
37	0xbbf766b7	-0.0075500864
38	0x3d3f14a1	0.046650533
39	0x3e8aeb84	0.2713281
40	0xbd30b1ff	-0.0431385
41	0x3cec21ab	0.028824648
42	0xbc0981f2	-0.008392798
43	0xbd48381e	-0.048881643
44	0xbdbb4a17	-0.09144991
45	0x3e07b447	0.13252364
46	0xbd93434b	-0.071905695
47	0xbd9b2f6e	-0.07577406
48	0xbce4cb0b	-0.02792885
49	0x3dd161e4	0.10223749
50	0xbda68955	-0.08131663
51	0xbce4083e	-0.027835961
52	0xbcf728bc	-0.03017079
53	0x3de2f5e7	0.110820584
54	0xbdc8ca18	-0.09804171
55	0x3dcd3755	0.10020319
56	0x3ddc692d	0.10762248
57	0xbdb55ba5	-0.088553704
58	0x3dde80f4	0.108644396
59	0xbc484e28	-0.012225665
60	0xbc6483f4	-0.013947476
61	0xbcd73139	-0.026268588
62	0xbe636928	-0.22208083
63	0xbd04dd89	-0.032437835
64	0xbc757cee	-0.014983399
65	0xbd2bd1ec	-0.041948244
66	0xbdcc372d	-0.099714614
67	0x3cab3598	0.020899579
68	0xbd47d11b	-0.048783403
69	0x3d6518f2	0.055931993
70	0x3eb78d18	0.35849833
71	0xbd035fcc	-0.03207378
72	0xbca8540d	-0.020547891
73	0xbe35db9c	-0.17759556
74	0xbbe3fd76	-0.006957705
75	0x3e047376	0.1293467
76	0x3d4eb579	0.050466035
77	0x3e15beea	0.14623609
78	0xbd902cf2	-0.07039823
79	0xbd7c93a4	-0.06166424
80	0x3dfe7915	0.12425438
81	0x3cfdc096	0.030975621
82	0x3ec2b290	0.38026857
83	0xbd590aef	-0.052988943

linear3.weight f4 [10, 84]
0	0xbdba2e2b	-0.09090837
1	0x3e6e10c7	0.23248588
2	0x3d1641aa	0.036683716
3	0xbe261dcb	-0.16222303
4	0xbe85507e	-0.26037973
5	0x3d11ac91	0.035564963
6	0xbd35980d	-0.04433446
7	0xbcffa6c6	-0.031207453
8	0x3ddc0acd	0.107442476
9	0xbde0386f	-0.10948264
10	0xbc2f998b	-0.01071776
11	0x3bb025d3	0.0053756027
12	0x3e1da4a9	0.15394844
13	0xbd6f8c92	-0.058483668
14	0xbe7ce391	-0.24696185
15	0xbdce2160	-0.100649595
16	0x3ec7fec9	0.39061573
17	0xbd30ef50	-0.043196976
18	0x3e573674	0.21016866
19	0x3eb46202	0.35231024
20	0xbdf2b542	-0.118509784
21	0x3d6edb5a	0.05831466
22	0xbd00d936	-0.03145715
23	0x3ba0cd5a	0.0049072923
24	0x3d8fa66f	0.070141666
25	0xbd850d87	-0.06496721
26	0x3e8029b3	0.25031814
27	0xbe0efc82	-0.13963512
28	0xbcbce8e4	-0.02306027
29	0x3e010787	0.12600528
30	0xbdf69b87	-0.12041383
31	0x3c542a5c	0.012949552
32	0x3e69a2f2	0.22816065
33	0x3d99ad99	0.07503814
34	0xbec4e485	-0.38455597
35	0x3eaca377	0.33718464
36	0xbe392a5d	-0.18082567
37	0x3dd12f55	0.10214106
38	0xbe851a1d	-0.25996485
39	0x3c8b9e98	0.017043397
40	0x3e7940bf	0.24341105
41	0x3e80a4ed	0.25125828
42	0x3d89f474	0.06736079
43	0xbd9ab136	-0.075533316
44	0xbb5e8e9b	-0.0033959511
45	0x3e43720e	0.19086477
46	0x3e8295b6	0.25504845
47	0xbe066e4d	-0.13128014
48	0x3d994a93	0.07484927
49	0x3e1039e0	0.14084578
50	0x3d8fcfd0	0.07022059
51	0xbe1151ab	-0.1419131
52	0x3e180332	0.14844969
53	0x3e14dfc4	0.14538485
54	0xb90f30b9	-0.00013655693
55	0x3d441777	0.04787394
56	0x3dd46548	0.1037088
57	0x3aca0a18	0.0015414385
58	0x3d900991	0.07033075
59	0xbca552b8	-0.020181045
60	0x3e26a936	0.16275486
61	0xbcce6494	-0.025194444
62	0x3dc432e5	0.0958002
63	0x3d61d29e	0.0551325
64	0x3eb10744	0.34575856
65	0x3d4670f2	0.048447557
66	0xbd1ada89	-0.037806068
67	0x3e577a39	0.21042718
68	0xbe0be5d3	-0.1366189
69	0xbdf490ad	-0.11941657
70	0xbec8d04c	-0.39221418
71	0x3e743190	0.23847032
72	0x3d4de4cd	0.05026703
73	0x3dfc2605	0.12311939
74	0xbdea2d03	-0.114343666
75	0xbe02cf69	-0.12774433
76	0x3ce68633	0.028140163
77	0x3e013bf4	0.12620527
78	0x3d4b983a	0.04970572
79	0xbd44efab	-0.048080128
80	0xbd09b1a6	-0.033616684
81	0xbd99eca4	-0.07515839
82	0xbdbd4e45	-0.09243444
83	0xbcd52076	-0.026016455
84	0xbe9b6cd1	-0.30356458
85	0xbed07930	-0.4071746
86	0xbe13d3ea	-0.14436308
87	0x3e74882f	0.23880075
88	0x3d5d655f	0.054051753
89	0xbdb64b78	-0.08901113
90	0x3e5209c7	0.20511542
91	0x3bc8ab40	0.00612393
92	0xbe0ca237	-0.13733755
93	0x3cd5951e	0.026072081
94	0x3e2c1c49	0.16807665
95	0x3e40bbd7	0.18821655
96	0x3e02f222	0.12787679
97	0xbdc4c851	-0.0960852
98	0xbd68170b	-0.0566626
99	0xbd960ee1	-0.07327057
100	0xbdaa52aa	-0.08316548
101	0xbd0dc130	-0.034608066
102	0xbc5cdd63	-0.013480517
103	0xbdec9166	-0.1155117
104	0xbe01e145	-0.1268359
105	0xbd495aa9	-0.049158726
106	0x3e4dfbc7	0.20115577
107	0xbb5d6cc0	-0.0033786744
108	0x3de27d29	0.11059029
109	0x3e8849d1	0.26618817
110	0xbe399699	-0.18123855
111	0xbd984b51	-0.074362405
112	0xbae87367	-0.0017734588
113	0xbdeeed78	-0.11666387
114	0xbeb5c0af	-0.35498568
115	0x3dd15995	0.102221645
116	0xbe19c29e	-0.15015647
117	0x3c15d984	0.009146098
118	0x3e81f6f5	0.25383726
119	0x398d79cb	0.0002698436
120	0xbe507848	-0.20358384
121	0x3db50bd3	0.08840146
122	0x3d91c08e	0.07116805
123	0x396a1c12	0.00022326436
124	0x3e64ad90	0.22331834
125	0xbe8701e7	-0.2636864
126	0x3ea91850	0.3302636
127	0xbd9643e2	-0.07337166
128	0x3dd9c485	0.10633186
129	0xbdcc5048	-0.0997625
130	0xbde6a30b	-0.11261567
131	0x3ceabedc	0.028655462
132	0x3dcf96f7	0.10136216
133	0x3e3c8187	0.18408786
134	0x3b9db483	0.0048127784
135	0xbe671b86	-0.22569093
136	0xbe5cc009	-0.2155763
137	0xbd193684	-0.037405506
138	0x3e7379b5	0.23776896
139	0xbe127f8b	-0.14306466
140	0x3e46c765	0.19412
141	0x3d9acfff	0.07559203
142	0x3bac4782	0.005257548
143	0x3e1ee8af	0.15518449
144	0x3e175025	0.14776666
145	0x3e080ea8	0.13286841
146	0x3e550b0c	0.20804995
147	0x3d8475c3	0.06467774
148	0xbe54254a	-0.2071735
149	0x3dbe6121	0.092958696
150	0x3e6d8b01	0.23197557
151	0x3e403a28	0.18772185
152	0xbde5032f	-0.11182248
153	0xbdc509ed	-0.09621034
154	0xbec982b8	-0.39357543
155	0x3d85b5a3	0.06528785
156	0x3ba659f0	0.0050766394
157	0xbda9d888	-0.08293253
158	0xbd706782	-0.058692463
159	0xbe5e17a8	-0.21688712
160	0xbde2a288	-0.110661566
161	0xbe3db01a	-0.18524209
162	0x3ced1571	0.028940888
163	0x3da37bf4	0.079826266
164	0x3e075388	0.13215458
165	0x3df98976	0.12184422
166	0xbf0fc972	-0.56166756
167	0xbc87584c	-0.016521595
168	0x3cb46afa	0.022023667
169	0x3da2ed3c	0.07955405
170	0xbc15263b	-0.009103353
171	0x3e27c88a	0.16385093
172	0xbe0328e4	-0.12808567
173	0xbd37c153	-0.044862103
174	0xbeaf854f	-0.34281394
175	0xbd84605e	-0.06463693
176	0x3d767943	0.060174238
177	0x3d19a784	0.03751327
178	0x3e11f3b0	0.14253116
179	0xbe9562b9	-0.29176882
180	0xbdaf1d69	-0.085505314
181	0x3e876721	0.2644587
182	0xbc8cccfa	-0.017187584
183	0xbc848670	-0.016177386
184	0x3efed179	0.4976919
185	0x3c58b139	0.013225847
186	0x3d7148d2	0.058907337
187	0x3d9297af	0.071578376
188	0xbd463607	-0.04839137
189	0xbd0f7964	-0.035027876
190	0xbcce8f1d	-0.025214726
191	0x3c397360	0.011319011
192	0x3ea53e2a	0.3227399
193	0x3da8766f	0.082257144
194	0x3ea3b3e1	0.31973174
195	0x3e20ae8e	0.15691587
196	0x3ddc8cad	0.10769019
197	0x3e017724	0.12643105
198	0x3efb5e82	0.4909554
199	0xbcad518e	-0.021157052
200	0x3dcbc358	0.09949368
201	0x3d9ba3eb	0.07599624
202	0x3e7749b7	0.24149214
203	0xbda3e5b1	-0.080027945
204	0xbdf77b9c	-0.120841235
205	0xbd8854c5	-0.066567935
206	0xbe2ded60	-0.16985083
207	0x3eacf426	0.3378002
208	0xbaf95ce8	-0.0019024881
209	0xbe43f1f3	-0.19135265
210	0x3e0e3f3a	0.13891307
211	0x3b471279	0.0030376
212	0xbcdeaaf8	-0.027181134
213	0x3b31de65	0.0027140614
214	0xbd5cf0cd	-0.053940583
215	0x3d56e159	0.052461002
216	0xbce243c0	-0.027620196
217	0xbda2db86	-0.07952027
218	0x3d654678	0.055975407
219	0x3eaf0e57	0.34190628
220	0x3e0df92f	0.13864587
221	0x3e69fc62	0.22850183
222	0x3d63bd3c	0.05560039
223	0xbce60c1f	-0.028081952
224	0x3d07e6e1	0.033179168
225	0x3d12394f	0.035699185
226	0xbde30cba	-0.11086412
227	0xbe65dcea	-0.22447553
228	0xbd095903	-0.033532154
229	0xbd9b6b9a	-0.07588883
230	0xbe2b6d02	-0.16740802
231	0xbe350da4	-0.17680985
232	0x3e87ece5	0.26547924
233	0xbe267d01	-0.16258623
234	0xbdd1f6e6	-0.1025217
235	0xbe21c764	-0.15798718
236	0x3e7f3669	0.249231
237	0xbd9248c1	-0.07142783
238	0xbd7de58a	-0.061986484
239	0x3e03fb39	0.12888803
240	0xbdb18216	-0.0866739
241	0xbd9fec24	-0.07808712
242	0x3d9c9e32	0.07647361
243	0xbd19ef55	-0.03758176
244	0x3db42028	0.08795196
245	0x3d82362b	0.06357988
246	0x3e238b5b	0.15971129
247	0xbdd18908	-0.10231215
248	0x3e536cf0	0.20647025
249	0xbe374037	-0.1789559
250	0x3cfda7c8	0.030963793
251	0x3e22ba19	0.15891303
252	0x3e431bfc	0.19053644
253	0x3dd95ba4	0.10613182
254	0xbd0cd08e	-0.03437858
255	0xbb369201	-0.0027858021

linear3.bias f4 [10]
0	0xbe900d92	-0.28135353
1	0xbedba7c5	-0.42901435
2	0x3e889777	0.26678059
3	0x3cb3e746	0.021960866
4	0x3f29cf86	0.6633228
5	0xbdca986e	-0.09892355
6	0x3ec1fb89	0.3788722
7	0xbbd475ef	-0.0064837853
8	0x3da9a28f	0.08282959
9	0xbea9826c	-0.33107316
